models/model_patience_5 _gamma_2n_abnormal_axial_val_auc_0.8636_train_auc_0.9016_epoch_39.pth (torch, 886469 bytes, 32 tensors)

weight f4 [16, 1, 7, 7]
0	0xbea9262a	-0.3303693
1	0xbcbfecd3	-0.023428356
2	0x3e1d47ec	0.15359467
3	0x3e337d6a	0.1752831
4	0xbcc330ac	-0.02382692
5	0xbe1df1c3	-0.15424256
6	0x3e813233	0.2523361
7	0xbdf6a39e	-0.12042926
8	0x3ec21fe5	0.3791496
9	0xbd849791	-0.064742215
10	0x3ee76cf4	0.45200312
11	0xbe0819f9	-0.13291158
12	0xbde9c126	-0.11413793
13	0x3c04446f	0.008072956
14	0xbe2ae1c1	-0.16687681
15	0xbaa41ff1	-0.0012521726
16	0xbd9f6271	-0.07782448
17	0xbd3934a4	-0.045216218
18	0x3e067d3c	0.1313371
19	0xbea4aa11	-0.32161
20	0x3b124ee9	0.0022324866
21	0x3dec37c7	0.11534076
22	0xbdeb3204	-0.11484149
23	0x3e383370	0.17988372
24	0xbbf4cb09	-0.0074704927
25	0xbeb9beba	-0.36278325
26	0xbe2a5474	-0.16633779
27	0xbc864056	-0.0163881
28	0x3da60701	0.08106805
29	0xbe13e39a	-0.14442292
30	0x3e4360e4	0.1907993
31	0x3e701ca2	0.23448423
32	0xbe958d1b	-0.29209217
33	0xbd32636c	-0.043551847
34	0xbd8dbd1c	-0.069208354
35	0xbd935016	-0.071930096
36	0xbe135917	-0.14389454
37	0x3eb699f5	0.35664335
38	0xbe305c7a	-0.17222777
39	0xbdf3a12c	-0.118959755
40	0xbefa4d1d	-0.48886958
41	0x3e250e74	0.16118795
42	0x3dbffd99	0.09374542
43	0x3cec0e75	0.028815487
44	0xbdeab122	-0.11459567
45	0xbe73bf8c	-0.23803538
46	0x3d790566	0.060796164
47	0x3ec668c2	0.387518
48	0x3f158d2d	0.5841854
49	0x3d50dc20	0.050991178
50	0xbe82b728	-0.25530362
51	0x3ec771d6	0.38954037
52	0xbe517bc1	-0.20457365
53	0x3d3b4c73	0.045727205
54	0x3db0726d	0.08615575
55	0xbcd76f61	-0.026298227
56	0xbe0366a4	-0.12832123
57	0xbe246367	-0.16053544
58	0x3e650990	0.22366929
59	0xbe8e962c	-0.27848947
60	0xbdff6bf1	-0.1247176
61	0xbe40ecb0	-0.18840289
62	0x3c74d5d5	0.01494356
63	0x3eb87776	0.3602864
64	0xbe1dec32	-0.15422133
65	0x3e511587	0.20418368
66	0x3d64d5f1	0.055868093
67	0xbd96bf16	-0.073606655
68	0xbd4c8c16	-0.049938284
69	0xbdb55928	-0.08854896
70	0x3e8a26d8	0.2698276
71	0x3e41fe99	0.18944778
72	0xbe479ea7	-0.19494115
73	0xbefbb78b	-0.4916347
74	0xbe670713	-0.22561292
75	0xbeebeb95	-0.46078172
76	0xbe88e43e	-0.26736635
77	0x3d26b3a7	0.040698674
78	0xbd538896	-0.05164393
79	0xbd8492a7	-0.06473284
80	0x3e1b38a0	0.1515832
81	0xbe9616d7	-0.293143
82	0xbdfb65e1	-0.12275291
83	0xbceb747b	-0.028742066
84	0xbea3e206	-0.3200838
85	0x3daada82	0.08342458
86	0x3d311a61	0.043238048
87	0xbd492334	-0.049105838
88	0x3d9ccdaf	0.076564185
89	0xbd8ad959	-0.06779737
90	0xbd9a78c4	-0.075425655
91	0x3dddece9	0.10836203
92	0xbd92d4c6	-0.071694896
93	0xbd0ab219	-0.033861253
94	0xbe2f069a	-0.17092362
95	0x3de66aa3	0.11250808
96	0x3e852333	0.26003417
97	0xbd33e7fe	-0.043922417
98	0x3e37d3e8	0.1795193
99	0x3e17f108	0.1483804
100	0x3d02182a	0.031761326
101	0xbd58b2e1	-0.052904967
102	0x3c35392c	0.011060994
103	0x3e385a71	0.1800325
104	0x3e00f189	0.12592138
105	0xbeb7f9b9	-0.3593271
106	0x3e5e5bf5	0.21714766
107	0x3d791142	0.060807474
108	0x3d6c0440	0.05762124
109	0xbc9c9c98	-0.019117638
110	0xbe6d4ef6	-0.23174652
111	0xbd72105c	-0.059097633
112	0x3db04138	0.086061895
113	0xbd6144e3	-0.054997336
114	0xbe7ebc6b	-0.24876563
115	0x3e4bb932	0.19894865
116	0x3e1af735	0.15133364
117	0x3d5055f7	0.050863232
118	0x3dcf1a91	0.10112489
119	0xbec98d35	-0.39365545
120	0x3d51c680	0.051214695
121	0x3ecd70ac	0.40125024
122	0x3dfb20b4	0.12262097
123	0x3e48c9c1	0.19608213
124	0x3cd169e6	0.025563192
125	0xbe6e9f5a	-0.23302975
126	0x3e5753c5	0.2102805
127	0x3dd311d2	0.10306133
128	0xbe37f503	-0.17964558
129	0x3de9a62e	0.114086494
130	0xbde6d9b0	-0.11271989
131	0x3e52003d	0.20507903
132	0xbd8e00a2	-0.069337144
133	0x3da254ea	0.07926352
134	0xbe55eb44	-0.20890528
135	0x3dc7507e	0.097321495
136	0xbd770d77	-0.060315575
137	0x3d0af819	0.03392801
138	0xbe70caa3	-0.235148
139	0xbe24141d	-0.16023298
140	0xbd88f7dc	-0.066879004
141	0x3d138fd6	0.036025845
142	0xbe6a52f1	-0.22883202
143	0xbc7d3aae	-0.015455885
144	0x3d99d1ac	0.07510695
145	0xbdce9bec	-0.100883335
146	0xbcd82af6	-0.026387673
147	0xbca2a1a4	-0.019852467
148	0xbe6622fd	-0.22474284
149	0x3ea1cd69	0.31602028
150	0x3d8a3eab	0.06750234
151	0x3e9bc12d	0.3042082
152	0x3db13255	0.08652178
153	0xbead508e	-0.3385052
154	0xbea92ecf	-0.33043525
155	0x3d63625f	0.055513736
156	0xbdef7f66	-0.11694221
157	0xbd2b3849	-0.041801725
158	0x3e64f226	0.22357997
159	0xbc71f227	-0.014767206
160	0x3d912e07	0.07088857
161	0x3cb10e1b	0.021613171
162	0xbe026fa4	-0.127379
163	0xbc6e4de6	-0.01454494
164	0x3dadea18	0.084919155
165	0xbd7f904c	-0.06239347
166	0x3b5aa66b	0.0033363353
167	0xbe934834	-0.28766024
168	0xbddb1b6e	-0.10698591
169	0xbc4d661c	-0.012536552
170	0xbc6a85d4	-0.014314134
171	0xbc6a0ba2	-0.014285
172	0x3eb48790	0.35259676
173	0x3e308a5c	0.1724028
174	0xbe265497	-0.16243206
175	0x3f434470	0.762763
176	0xbe421a11	-0.18955256
177	0xbe9b68bc	-0.30353343
178	0xbe12821f	-0.1430745
179	0xbe59f085	-0.21283157
180	0x3e7b5f6e	0.24548122
181	0xbdaa32e2	-0.083104864
182	0xbe27f9b9	-0.16403855
183	0xbe051978	-0.12997997
184	0xbe042b29	-0.1290709
185	0xbdb04ccb	-0.08608397
186	0xbe38e1c2	-0.1805487
187	0x3e5598b6	0.20859036
188	0xbce15254	-0.027505077
189	0xbda24919	-0.079240985
190	0xbd6590d4	-0.056046322
191	0xbe3bad49	-0.18327822
192	0xbc48a8e6	-0.0122473
193	0x3e0b112d	0.13580771
194	0x3d277f0c	0.040892646
195	0xbce3e858	-0.027820751
196	0x3ec1c24d	0.37843552
197	0xbe3d8aa1	-0.18509914
198	0x3ec755d6	0.38932675
199	0xbe0a472f	-0.13503717
200	0xbe6412f1	-0.2227285
201	0xbd40bce9	-0.04705516
202	0x3e2552f7	0.1614493
203	0x3e83e6d2	0.2576204
204	0xbcb3c3be	-0.021943923
205	0xbebe7a04	-0.37202466
206	0x3e00aa22	0.125649
207	0xbe5d87e9	-0.21633877
208	0xbe554433	-0.20826797
209	0xbe3b228d	-0.18274899
210	0xbeae2e3f	-0.34019658
211	0x3c33339c	0.010937598
212	0xbcc29fe2	-0.023757879
213	0xbde1ce83	-0.11025717
214	0x3e9d2cd0	0.30698252
215	0x3e6fe4ef	0.23427175
216	0x3eb00785	0.34380737
217	0x3e3928bc	0.18081945
218	0x3e1efbdf	0.15525769
219	0x3ef6b7f4	0.4818722
220	0xbd2006c1	-0.03906894
221	0x3dbdf853	0.0927588
222	0x3e89b795	0.26897874
223	0xbe5254e9	-0.20540203
224	0xbcf94a57	-0.030430956
225	0xbeb8893d	-0.36042204
226	0x3dfb246f	0.122628085
227	0x3e3f4a2a	0.18680635
228	0x3e1447f8	0.14480579
229	0xbdc4be93	-0.09606662
230	0x3e9c8da6	0.3057682
231	0xbeefdb84	-0.46847165
232	0x3c4b7ad2	0.012419419
233	0xbea5f502	-0.3241349
234	0xbd9e1393	-0.07718577
235	0xbec7a5d9	-0.3899372
236	0x3e036edd	0.1283526
237	0xbe29e73f	-0.1659212
238	0x3d24a249	0.04019383
239	0xbe72e705	-0.2372094
240	0x3e2dec07	0.16984569
241	0xbd5d0a97	-0.053965177
242	0x3e3d9051	0.18512084
243	0x3e4d2f21	0.2003751
244	0x3e893e64	0.26805413
245	0x3e5881e6	0.21143302
246	0x3dd8c330	0.10584104
247	0xbdcb9a28	-0.09941512
248	0xbea6c46b	-0.3257173
249	0x3d8ba195	0.06817929
250	0xbe135459	-0.14387645
251	0x3e6ded2b	0.23235004
252	0x3e4840fc	0.1955604
253	0xbdcc2888	-0.09968668
254	0xbec15bdd	-0.377654
255	0xbdabf9dc	-0.08397266

kernel f4 [16, 1, 5, 5]
0	0x3b7f9724	0.0039
1	0x3c7f9724	0.0156
2	0x3cbfb15b	0.0234
3	0x3c7f9724	0.0156
4	0x3b7f9724	0.0039
5	0x3c7f9724	0.0156
6	0x3d800000	0.0625
7	0x3dc01a37	0.0938
8	0x3d800000	0.0625
9	0x3c7f9724	0.0156
10	0x3cbfb15b	0.0234
11	0x3dc01a37	0.0938
12	0x3e0ff972	0.1406
13	0x3dc01a37	0.0938
14	0x3cbfb15b	0.0234
15	0x3c7f9724	0.0156
16	0x3d800000	0.0625
17	0x3dc01a37	0.0938
18	0x3d800000	0.0625
19	0x3c7f9724	0.0156
20	0x3b7f9724	0.0039
21	0x3c7f9724	0.0156
22	0x3cbfb15b	0.0234
23	0x3c7f9724	0.0156
24	0x3b7f9724	0.0039
25	0x3b7f9724	0.0039
26	0x3c7f9724	0.0156
27	0x3cbfb15b	0.0234
28	0x3c7f9724	0.0156
29	0x3b7f9724	0.0039
30	0x3c7f9724	0.0156
31	0x3d800000	0.0625
32	0x3dc01a37	0.0938
33	0x3d800000	0.0625
34	0x3c7f9724	0.0156
35	0x3cbfb15b	0.0234
36	0x3dc01a37	0.0938
37	0x3e0ff972	0.1406
38	0x3dc01a37	0.0938
39	0x3cbfb15b	0.0234
40	0x3c7f9724	0.0156
41	0x3d800000	0.0625
42	0x3dc01a37	0.0938
43	0x3d800000	0.0625
44	0x3c7f9724	0.0156
45	0x3b7f9724	0.0039
46	0x3c7f9724	0.0156
47	0x3cbfb15b	0.0234
48	0x3c7f9724	0.0156
49	0x3b7f9724	0.0039
50	0x3b7f9724	0.0039
51	0x3c7f9724	0.0156
52	0x3cbfb15b	0.0234
53	0x3c7f9724	0.0156
54	0x3b7f9724	0.0039
55	0x3c7f9724	0.0156
56	0x3d800000	0.0625
57	0x3dc01a37	0.0938
58	0x3d800000	0.0625
59	0x3c7f9724	0.0156
60	0x3cbfb15b	0.0234
61	0x3dc01a37	0.0938
62	0x3e0ff972	0.1406
63	0x3dc01a37	0.0938
64	0x3cbfb15b	0.0234
65	0x3c7f9724	0.0156
66	0x3d800000	0.0625
67	0x3dc01a37	0.0938
68	0x3d800000	0.0625
69	0x3c7f9724	0.0156
70	0x3b7f9724	0.0039
71	0x3c7f9724	0.0156
72	0x3cbfb15b	0.0234
73	0x3c7f9724	0.0156
74	0x3b7f9724	0.0039
75	0x3b7f9724	0.0039
76	0x3c7f9724	0.0156
77	0x3cbfb15b	0.0234
78	0x3c7f9724	0.0156
79	0x3b7f9724	0.0039
80	0x3c7f9724	0.0156
81	0x3d800000	0.0625
82	0x3dc01a37	0.0938
83	0x3d800000	0.0625
84	0x3c7f9724	0.0156
85	0x3cbfb15b	0.0234
86	0x3dc01a37	0.0938
87	0x3e0ff972	0.1406
88	0x3dc01a37	0.0938
89	0x3cbfb15b	0.0234
90	0x3c7f9724	0.0156
91	0x3d800000	0.0625
92	0x3dc01a37	0.0938
93	0x3d800000	0.0625
94	0x3c7f9724	0.0156
95	0x3b7f9724	0.0039
96	0x3c7f9724	0.0156
97	0x3cbfb15b	0.0234
98	0x3c7f9724	0.0156
99	0x3b7f9724	0.0039
100	0x3b7f9724	0.0039
101	0x3c7f9724	0.0156
102	0x3cbfb15b	0.0234
103	0x3c7f9724	0.0156
104	0x3b7f9724	0.0039
105	0x3c7f9724	0.0156
106	0x3d800000	0.0625
107	0x3dc01a37	0.0938
108	0x3d800000	0.0625
109	0x3c7f9724	0.0156
110	0x3cbfb15b	0.0234
111	0x3dc01a37	0.0938
112	0x3e0ff972	0.1406
113	0x3dc01a37	0.0938
114	0x3cbfb15b	0.0234
115	0x3c7f9724	0.0156
116	0x3d800000	0.0625
117	0x3dc01a37	0.0938
118	0x3d800000	0.0625
119	0x3c7f9724	0.0156
120	0x3b7f9724	0.0039
121	0x3c7f9724	0.0156
122	0x3cbfb15b	0.0234
123	0x3c7f9724	0.0156
124	0x3b7f9724	0.0039
125	0x3b7f9724	0.0039
126	0x3c7f9724	0.0156
127	0x3cbfb15b	0.0234
128	0x3c7f9724	0.0156
129	0x3b7f9724	0.0039
130	0x3c7f9724	0.0156
131	0x3d800000	0.0625
132	0x3dc01a37	0.0938
133	0x3d800000	0.0625
134	0x3c7f9724	0.0156
135	0x3cbfb15b	0.0234
136	0x3dc01a37	0.0938
137	0x3e0ff972	0.1406
138	0x3dc01a37	0.0938
139	0x3cbfb15b	0.0234
140	0x3c7f9724	0.0156
141	0x3d800000	0.0625
142	0x3dc01a37	0.0938
143	0x3d800000	0.0625
144	0x3c7f9724	0.0156
145	0x3b7f9724	0.0039
146	0x3c7f9724	0.0156
147	0x3cbfb15b	0.0234
148	0x3c7f9724	0.0156
149	0x3b7f9724	0.0039
150	0x3b7f9724	0.0039
151	0x3c7f9724	0.0156
152	0x3cbfb15b	0.0234
153	0x3c7f9724	0.0156
154	0x3b7f9724	0.0039
155	0x3c7f9724	0.0156
156	0x3d800000	0.0625
157	0x3dc01a37	0.0938
158	0x3d800000	0.0625
159	0x3c7f9724	0.0156
160	0x3cbfb15b	0.0234
161	0x3dc01a37	0.0938
162	0x3e0ff972	0.1406
163	0x3dc01a37	0.0938
164	0x3cbfb15b	0.0234
165	0x3c7f9724	0.0156
166	0x3d800000	0.0625
167	0x3dc01a37	0.0938
168	0x3d800000	0.0625
169	0x3c7f9724	0.0156
170	0x3b7f9724	0.0039
171	0x3c7f9724	0.0156
172	0x3cbfb15b	0.0234
173	0x3c7f9724	0.0156
174	0x3b7f9724	0.0039
175	0x3b7f9724	0.0039
176	0x3c7f9724	0.0156
177	0x3cbfb15b	0.0234
178	0x3c7f9724	0.0156
179	0x3b7f9724	0.0039
180	0x3c7f9724	0.0156
181	0x3d800000	0.0625
182	0x3dc01a37	0.0938
183	0x3d800000	0.0625
184	0x3c7f9724	0.0156
185	0x3cbfb15b	0.0234
186	0x3dc01a37	0.0938
187	0x3e0ff972	0.1406
188	0x3dc01a37	0.0938
189	0x3cbfb15b	0.0234
190	0x3c7f9724	0.0156
191	0x3d800000	0.0625
192	0x3dc01a37	0.0938
193	0x3d800000	0.0625
194	0x3c7f9724	0.0156
195	0x3b7f9724	0.0039
196	0x3c7f9724	0.0156
197	0x3cbfb15b	0.0234
198	0x3c7f9724	0.0156
199	0x3b7f9724	0.0039
200	0x3b7f9724	0.0039
201	0x3c7f9724	0.0156
202	0x3cbfb15b	0.0234
203	0x3c7f9724	0.0156
204	0x3b7f9724	0.0039
205	0x3c7f9724	0.0156
206	0x3d800000	0.0625
207	0x3dc01a37	0.0938
208	0x3d800000	0.0625
209	0x3c7f9724	0.0156
210	0x3cbfb15b	0.0234
211	0x3dc01a37	0.0938
212	0x3e0ff972	0.1406
213	0x3dc01a37	0.0938
214	0x3cbfb15b	0.0234
215	0x3c7f9724	0.0156
216	0x3d800000	0.0625
217	0x3dc01a37	0.0938
218	0x3d800000	0.0625
219	0x3c7f9724	0.0156
220	0x3b7f9724	0.0039
221	0x3c7f9724	0.0156
222	0x3cbfb15b	0.0234
223	0x3c7f9724	0.0156
224	0x3b7f9724	0.0039
225	0x3b7f9724	0.0039
226	0x3c7f9724	0.0156
227	0x3cbfb15b	0.0234
228	0x3c7f9724	0.0156
229	0x3b7f9724	0.0039
230	0x3c7f9724	0.0156
231	0x3d800000	0.0625
232	0x3dc01a37	0.0938
233	0x3d800000	0.0625
234	0x3c7f9724	0.0156
235	0x3cbfb15b	0.0234
236	0x3dc01a37	0.0938
237	0x3e0ff972	0.1406
238	0x3dc01a37	0.0938
239	0x3cbfb15b	0.0234
240	0x3c7f9724	0.0156
241	0x3d800000	0.0625
242	0x3dc01a37	0.0938
243	0x3d800000	0.0625
244	0x3c7f9724	0.0156
245	0x3b7f9724	0.0039
246	0x3c7f9724	0.0156
247	0x3cbfb15b	0.0234
248	0x3c7f9724	0.0156
249	0x3b7f9724	0.0039
250	0x3b7f9724	0.0039
251	0x3c7f9724	0.0156
252	0x3cbfb15b	0.0234
253	0x3c7f9724	0.0156
254	0x3b7f9724	0.0039
255	0x3c7f9724	0.0156

weight f4 [16]
0	0x3f80de59	1.0067855
1	0x3f811e34	1.0087342
2	0x3f7f0aba	0.9962574
3	0x3f827ea4	1.0194898
4	0x3f7e10c8	0.99244356
5	0x3f804240	1.0020218
6	0x3f7f3024	0.9968283
7	0x3f82212a	1.0166371
8	0x3f823978	1.0173788
9	0x3f8108de	1.0080831
10	0x3f7ea63f	0.9947242
11	0x3f81de29	1.0145923
12	0x3f7f87e6	0.9981674
13	0x3f810d74	1.008223
14	0x3f7ce2fe	0.9878386
15	0x3f80651a	1.0030854

bias f4 [16]
0	0xbb115b31	-0.0022179598
1	0x3c0c98c7	0.008581347
2	0x393dae7d	0.00018089447
3	0x3c4bf91a	0.012449527
4	0xbc689288	-0.014195092
5	0xbb813a0f	-0.0039436887
6	0xba4afb07	-0.00077430945
7	0x3c65484c	0.013994288
8	0x3c04eac2	0.008112611
9	0x3abcc2fc	0.0014401372
10	0xbc1ec9f4	-0.009691704
11	0x3b409fca	0.0029392117
12	0xbbc11930	-0.005892895
13	0x3c059fbb	0.0081557585
14	0xbc07a508	-0.008279093
15	0xbb671b53	-0.003526409

weight f4 [16, 16, 5, 5]
0	0x3d0db76c	0.034598753
1	0x3c246d6a	0.010035852
2	0xbc8d2b60	-0.017232597
3	0xbd5fbdd8	-0.05462441
4	0x3c6edd29	0.014579096
5	0xbc079841	-0.008276046
6	0xbc8a36e8	-0.016871884
7	0xbbf2aa0a	-0.007405524
8	0x3b054d73	0.0020340353
9	0x3cd837c6	0.026393782
10	0x3d29d611	0.041463915
11	0xbbda4047	-0.0066604945
12	0x3c4f4722	0.012651237
13	0xbd0273c1	-0.031848673
14	0x3d41665c	0.047216758
15	0xbc95e3e0	-0.018297136
16	0x3d356d56	0.044293724
17	0x3cce440b	0.02517893
18	0x3d4a498f	0.049386557
19	0x3c9e2f78	0.019309744
20	0xbbab3e7c	-0.0052259546
21	0xbc8eb387	-0.01741959
22	0xbc3fccfe	-0.011706589
23	0x3b96b944	0.004599722
24	0x3c3b0963	0.011415812
25	0xbbe81ca5	-0.007083493
26	0x3ca9b292	0.020715032
27	0x3d2912e4	0.04127778
28	0xbc81531e	-0.015786704
29	0xbbe76db9	-0.0070626405
30	0xbca82305	-0.020524511
31	0x3d030a28	0.031992108
32	0x3d0f15e2	0.03493298
33	0xbc40b8f9	-0.011762851
34	0xb92f0b7e	-0.00016693582
35	0x3d4b4895	0.049629766
36	0x3d2f0bc9	0.04273585
37	0x3d2bee86	0.04197552
38	0x3d4a3fbd	0.04937719
39	0x3d3959e0	0.045251727
40	0xbd154c24	-0.036449566
41	0xbc743909	-0.014906176
42	0x3ce7dec8	0.028304473
43	0x3d6247a0	0.05524409
44	0xbd0f5bf8	-0.034999818
45	0xbbadbfba	-0.0053023966
46	0xbd0edee3	-0.03488053
47	0x3cacacde	0.021078523
48	0xbc913b80	-0.017728567
49	0x3c439a54	0.01193865
50	0x3d2c0779	0.041999314
51	0x3cb04294	0.021516122
52	0xbc677a84	-0.014128331
53	0x3d225049	0.039627347
54	0x3d381070	0.04493755
55	0x3cac979d	0.021068389
56	0x3d2568b8	0.04038307
57	0x3c8724fc	0.016497128
58	0x3c96cc5b	0.018407991
59	0xbd02ccf1	-0.03193373
60	0x3d130862	0.035896666
61	0xbc30afb9	-0.010784083
62	0x3ce603ac	0.028077923
63	0xbbf464bb	-0.007458297
64	0x3c0af8f9	0.008482211
65	0x3cf4db7c	0.029889815
66	0x3c53520b	0.012897979
67	0x3c481756	0.012212595
68	0xb992e57d	-0.00028018272
69	0x3cabea95	0.02098588
70	0xbd103a3f	-0.035211798
71	0x3c403f14	0.011733789
72	0xbd08f2ff	-0.033434864
73	0xbcccceb5	-0.02500091
74	0x3c9fa399	0.01948719
75	0x3c55aa44	0.013041083
76	0x3d13c0e4	0.036072627
77	0x3cbbfba7	0.022947146
78	0x3d179170	0.037003934
79	0x3c926088	0.017868295
80	0x3d24bec2	0.040220983
81	0x3d2f552a	0.04280583
82	0xbca1769c	-0.019709878
83	0x3d32301c	0.043502912
84	0x3d552c92	0.05204446
85	0xbc965032	-0.018348787
86	0x3d5c1424	0.053730145
87	0x3c35655f	0.011071532
88	0x3aece4ec	0.0018073595
89	0x3d3a56f4	0.04549308
90	0xbc0bd4e7	-0.008534647
91	0xbb70306d	-0.0036649958
92	0x3d683dc0	0.056699514
93	0x3d039040	0.03211999
94	0xbd00bcf6	-0.031430207
95	0x3d53521c	0.051591977
96	0xbca8f5f8	-0.0206251
97	0x3c816abe	0.015797969
98	0x3d8ab905	0.06773571
99	0xbcdb60ca	-0.026779551
100	0xbc84103a	-0.016121019
101	0x3ce1fabc	0.02758538
102	0xbd0454c7	-0.032307412
103	0x3ce0af1c	0.027427249
104	0xbd4c2932	-0.049843974
105	0xbc120bb6	-0.008913925
106	0xbd31b263	-0.043383013
107	0x3cb8ef91	0.022575172
108	0xbbd4731e	-0.0064834496
109	0xbd39e5a5	-0.04538502
110	0x3d0c76a2	0.034292825
111	0x3c8a0a69	0.016850667
112	0xbd212773	-0.039344262
113	0x3cc908f6	0.024540406
114	0xbd3de450	-0.046360314
115	0xbbb9ef81	-0.005674303
116	0x3d2116b7	0.039328303
117	0x3cdea578	0.027178511
118	0xbd3210ca	-0.043473043
119	0x3c254f1b	0.010089661
120	0xbd2b4f5e	-0.041823737
121	0x3d291418	0.04127893
122	0x3cf16008	0.029464737
123	0x3d22965f	0.039694186
124	0xbd0fa43f	-0.035068747
125	0x3d390c7d	0.045177925
126	0x3be3a6e8	0.006947387
127	0xbd38f3d3	-0.045154404
128	0xbc5e22ef	-0.0135581335
129	0xbcb1a82e	-0.02168664
130	0xbc603a8b	-0.013685833
131	0x3c850200	0.016236305
132	0xbd1c639f	-0.038180944
133	0x3d202026	0.03909316
134	0xbc7869e0	-0.015161961
135	0xbabae3d6	-0.0014258574
136	0x3cd0ca91	0.025487216
137	0xba288c2f	-0.00064295804
138	0x3c8e5437	0.017374141
139	0x3bd26dd4	0.006421784
140	0x3d21f83c	0.039543375
141	0xbd02767a	-0.03185127
142	0x3c75daa2	0.015005739
143	0xbc72304b	-0.014782022
144	0xbc699527	-0.014256752
145	0x3d4e5ae3	0.050379645
146	0x3cf0e291	0.02940491
147	0x3d288cde	0.041149966
148	0x3d4e478c	0.0503612
149	0x3d4047ae	0.04694336
150	0xbd21736e	-0.039416723
151	0x3cb7f6dd	0.02245658
152	0xbccc6ab3	-0.024953222
153	0xbd514f8f	-0.051101264
154	0x3d1b1955	0.037865955
155	0x3c219759	0.009862744
156	0xbd279286	-0.04091122
157	0x3cde1120	0.027107775
158	0x3c20d30b	0.009815942
159	0x3d34c320	0.0441314
160	0xbcf499c9	-0.029858487
161	0x3cc9ce1d	0.024634415
162	0x3c00476c	0.007829528
163	0x3c08f7a2	0.0083598215
164	0xbcbe9f7e	-0.023269411
165	0xbbb35eea	-0.005473961
166	0xbb0d75c7	-0.0021585093
167	0xbb835fcf	-0.004009224
168	0x3b8f8faa	0.0043811398
169	0xbd524766	-0.051337622
170	0x3d2de230	0.042452037
171	0x3cb3652e	0.021898832
172	0x3a7291ec	0.00092533114
173	0xbcad9b57	-0.021192236
174	0x3cd42948	0.02589859
175	0x3beff4d9	0.0073228893
176	0xbcf0c3bc	-0.029390208
177	0x3d2714c6	0.040791295
178	0xbd048d6e	-0.03236144
179	0x3d4b875b	0.049689632
180	0x3d17f2da	0.037096836
181	0xbd1f4f3e	-0.03889393
182	0xbce8a595	-0.028399268
183	0x3c2588c1	0.010103405
184	0xbd180368	-0.037112623
185	0xbc38a484	-0.011269692
186	0xbce62d82	-0.028097872
187	0x3c54dc0d	0.012991917
188	0x3cc62f80	0.024192572
189	0x3b3e96ca	0.0029081577
190	0xbd130f64	-0.03590335
191	0xbd16746c	-0.036732122
192	0xbd222a0d	-0.039590884
193	0x3ba5b6dc	0.005057199
194	0xbb67fee9	-0.003539974
195	0xbce9e90e	-0.028553512
196	0xbcb42be1	-0.02199358
197	0x3d40be3d	0.047056425
198	0x3d1dc40d	0.038517047
199	0xbc902874	-0.017597415
200	0xbca8a39b	-0.020585826
201	0x3cb8dda2	0.02256662
202	0xbd03a0d4	-0.0321358
203	0xbbaa6eeb	-0.0052012107
204	0x3bdf778d	0.0068196715
205	0xbcdce2df	-0.02696365
206	0xbd3b4f22	-0.045729764
207	0x3c24189b	0.010015632
208	0xbc1ac166	-0.009445524
209	0x3bb8ee3b	0.0056436337
210	0x3b26619d	0.0025387772
211	0xbbf24a8d	-0.007394141
212	0x3c952abe	0.018208858
213	0x3cc8c21d	0.024506623
214	0x3d36fdca	0.044675626
215	0x3d7be19d	0.06149446
216	0x3d3358f7	0.043786015
217	0x3cd14658	0.025546238
218	0xbc4a00a6	-0.012329256
219	0xbca61f49	-0.02027859
220	0xbcf3f555	-0.02978007
221	0x3cb819f4	0.022473313
222	0x3cd2e97d	0.025746102
223	0x3c134a58	0.008989893
224	0x3ccbfa9e	0.024899777
225	0x3d05a570	0.032628477
226	0xbd0bd90f	-0.03414255
227	0xbcfe4c9c	-0.03104239
228	0x3be19985	0.006884756
229	0x3d22fcfd	0.03979205
230	0xbc59a670	-0.013284311
231	0xbcaca9ff	-0.021077154
232	0xbceda461	-0.029009046
233	0x3d184789	0.037177596
234	0x3c6f40fd	0.014602897
235	0x3ce3a414	0.0277882
236	0xbc8e9bd4	-0.017408289
237	0xbc9c738f	-0.019098071
238	0xbca0499c	-0.01956635
239	0xbb6288c0	-0.0034566373
240	0xbd5331bf	-0.051561113
241	0x3d068141	0.03283811
242	0x37f1f349	2.8842727e-05
243	0x3bd2e36c	0.006435802
244	0xbd106203	-0.03524972
245	0x3cfa9354	0.03058783
246	0x3c5e8a1a	0.013582731
247	0xbc428ff2	-0.01187514
248	0xbc5568b6	-0.013025453
249	0x3c38ec2e	0.011286778
250	0x3d4b79ec	0.04967682
251	0x3caa93a5	0.020822356
252	0x3d321398	0.043475717
253	0xbd3a743a	-0.045521
254	0xbcd10edf	-0.025519786
255	0x3ae9f2cf	0.0017848852

weight f4 [16]
0	0x3f7f7d88	0.9980092
1	0x3f7fba14	0.9989331
2	0x3f7f653d	0.9976385
3	0x3f7f4cb4	0.99726415
4	0x3f82d9c2	1.0222704
5	0x3f821d58	1.0165205
6	0x3f7f5c1c	0.9974992
7	0x3f7e8157	0.99416107
8	0x3f80e447	1.0069665
9	0x3f81576c	1.0104804
10	0x3f7fbf62	0.999014
11	0x3f808a10	1.0042133
12	0x3f803ed3	1.0019172
13	0x3f81614e	1.010782
14	0x3f7fbae7	0.99894565
15	0x3f803d9c	1.0018802

bias f4 [16]
0	0xbad7aade	-0.0016454121
1	0xbbc50f02	-0.006013752
2	0xbc1a782c	-0.009428065
3	0xbb03942c	-0.002007733
4	0xbbfa1b1e	-0.007632627
5	0xbbdd84df	-0.0067602242
6	0xbb751970	-0.0037399195
7	0x3b01e748	0.0019821692
8	0xbc235e0e	-0.009971155
9	0xbc2574a0	-0.010098606
10	0xbb668988	-0.003517719
11	0xbbd3edd8	-0.006467562
12	0xbbd8f181	-0.0066205864
13	0x3a836581	0.0010024757
14	0xbc1267bb	-0.008935864
15	0xbbb901db	-0.005645973

weight f4 [16, 16, 5, 5]
0	0xbc464409	-0.012101182
1	0x3cc8d99b	0.024517825
2	0xbc6ece21	-0.014575512
3	0xbd373810	-0.0447312
4	0xbd0c6cad	-0.03428333
5	0xbcb76697	-0.022387786
6	0x3d289fb0	0.041167915
7	0xbd197714	-0.037467077
8	0xbcbac2a2	-0.022797886
9	0xbc2a5ee1	-0.010398597
10	0x3d3b61ba	0.045747496
11	0x3c2aec74	0.010432351
12	0x3d3388b7	0.043831553
13	0x3c18d0b5	0.009327103
14	0xbc5f40e7	-0.013626314
15	0xbce928f5	-0.028461913
16	0x3bd2e265	0.0064356797
17	0xbcdc66dd	-0.026904518
18	0x3cdeb0b4	0.027183868
19	0x3bbc8c74	0.005754048
20	0xbca93873	-0.0206568
21	0x3c326d7a	0.010890359
22	0x3c8a9a87	0.016919388
23	0xbaf74f53	-0.0018868245
24	0x3c0ddd6a	0.008658746
25	0xbd13ef14	-0.036116675
26	0x3d44f1dc	0.048082218
27	0x3beb05b9	0.007172313
28	0xbcf575ca	-0.029963393
29	0x3cb65235	0.022255996
30	0xbce10d6d	-0.027472222
31	0x3d2ae68a	0.041723765
32	0xbceb9dec	-0.028761826
33	0x3d0b4dc0	0.034009695
34	0x3a11b6f0	0.0005558571
35	0xbc4f4dfe	-0.012652872
36	0xb9393c41	-0.00017665421
37	0x3cab4851	0.020908507
38	0xbd0cd2ec	-0.03438084
39	0x3b3f6787	0.0029205994
40	0xbc5c8b70	-0.013460979
41	0x3bf1070b	0.007355576
42	0xbc34635d	-0.011010018
43	0x3c39e2b6	0.011345556
44	0xbc826629	-0.015917854
45	0x3cc2f66d	0.023799146
46	0x3d502742	0.05081869
47	0xbd1c43b6	-0.03815051
48	0x3d036ac0	0.032084227
49	0xbd068870	-0.03284496
50	0x3c86cd31	0.016455265
51	0x3d27cc91	0.040966574
52	0x3b5e1689	0.0033887944
53	0xbcefec6c	-0.02928754
54	0x3b91a953	0.004445234
55	0x3c4f44e8	0.012650706
56	0xbbbbbb68	-0.0057291277
57	0xbd168bb9	-0.036754344
58	0xbcfbac6b	-0.030721864
59	0xbd15d082	-0.0365758
60	0xbcae134c	-0.021249436
61	0x3d40c7da	0.047065593
62	0x3d0d8501	0.03455067
63	0x3a0dca0e	0.00054088316
64	0x3d243211	0.04008681
65	0xbca3664e	-0.019946244
66	0xbce15249	-0.027505057
67	0x3c7d15a6	0.015447056
68	0xbc80d640	-0.015727162
69	0xbcb0e61a	-0.021594096
70	0x3cae28a3	0.021259611
71	0x3c1c800e	0.009552015
72	0xbcf4e174	-0.02989266
73	0xbd29516a	-0.041337408
74	0x3ca5665a	0.020190407
75	0x3bbd34c3	0.005774112
76	0x3d1a7d1b	0.037716966
77	0x3cbb350d	0.022852445
78	0xbb3af41d	-0.002852685
79	0x3c01b54e	0.007916762
80	0x3c242b80	0.010020137
81	0x3b53596b	0.0032249342
82	0xbca75731	-0.020427318
83	0xbd4bbf34	-0.049742892
84	0xbd1afb02	-0.037837036
85	0xbc4d4243	-0.012528005
86	0xbc8d7106	-0.017265808
87	0x3d1dbd35	0.03851052
88	0x3d1ba09b	0.037994962
89	0x3c80483c	0.015659444
90	0x3d5004c6	0.050785802
91	0x3c894482	0.0167563
92	0x3d34cd28	0.044140965
93	0x3d313682	0.043264873
94	0x3bb9d9d5	0.0056717196
95	0x3cb32154	0.021866478
96	0xbcc7fd86	-0.024412882
97	0x3cb9c496	0.022676747
98	0xbb8825d2	-0.004154899
99	0xbd09ec6e	-0.033672743
100	0x3d3d99e3	0.046289336
101	0x3c7a0ce0	0.015261859
102	0xbc4bcd5d	-0.012439099
103	0xbc040a91	-0.00805916
104	0x3be09ccb	0.0068546287
105	0x3d4346e4	0.04767503
106	0x3d0d1b71	0.03445
107	0x3cfcdeef	0.030868022
108	0xbc387a53	-0.011259633
109	0x3d1af96d	0.037835527
110	0x3a4fa391	0.00079207966
111	0x3b98d32d	0.004663846
112	0x3d3de55e	0.04636132
113	0xbbe1dbf9	-0.006892678
114	0xbd1c2cd8	-0.038128704
115	0x3ce964a2	0.028490368
116	0x3d652d17	0.055951204
117	0x3c162574	0.009164203
118	0x3bfdabed	0.0077414424
119	0x3d18b3de	0.03728091
120	0xbcd46e42	-0.025931481
121	0xbcaaae67	-0.020835115
122	0x3d02c92c	0.031930134
123	0xbbcad249	-0.0061896187
124	0x3d4ec93c	0.05048488
125	0x3a6fdaba	0.0009149719
126	0x3d165c84	0.036709324
127	0x3c5a0b6a	0.013308385
128	0xbd0cc776	-0.03436991
129	0x3d66a050	0.05630523
130	0x3ce84f44	0.02835811
131	0xbc7793a9	-0.0151108885
132	0x3ca37f17	0.019958062
133	0x3d3317df	0.043723937
134	0xbc3b115d	-0.011417714
135	0x3d213e7c	0.03936623
136	0xbd0e3f1f	-0.034728166
137	0x3ca87a05	0.020565996
138	0x3d31753a	0.043324687
139	0xbcb1ffe1	-0.021728458
140	0xbcfec6ef	-0.031100718
141	0x3b8276f0	0.0039814636
142	0xbd2b98d5	-0.0418938
143	0xbc3de188	-0.011589415
144	0xbd19f342	-0.037585504
145	0xbbafc68f	-0.005364246
146	0x3cadb7b3	0.021205759
147	0x3d16ecc0	0.036846876
148	0x3c3a76fa	0.011380905
149	0x3b7b7d79	0.0038374348
150	0xbc1c52df	-0.009541242
151	0x3beaf0a3	0.0071697994
152	0xb95fb8e3	-0.00021335813
153	0xbd133c85	-0.035946388
154	0x3c54be8c	0.012984883
155	0xbc46ef44	-0.012142006
156	0x3cfb015b	0.030640295
157	0xbc3b994c	-0.011450123
158	0x3d0ca8ac	0.034340546
159	0xbd48b1cd	-0.04899769
160	0xbc8f80a3	-0.017517393
161	0x3d0d269a	0.03446064
162	0x3b82afe7	0.0039882543
163	0x3d074c23	0.033031594
164	0xbd2684dc	-0.04065405
165	0xbcc509ad	-0.024052465
166	0xbceb41a8	-0.02871783
167	0xbd487340	-0.048938036
168	0x3c46a81c	0.012125041
169	0xbbf8073b	-0.0075692213
170	0x3c70171d	0.014653948
171	0x3cb00a26	0.021489214
172	0x3c5ca914	0.013468046
173	0xbd0dcdb9	-0.03462002
174	0x3a661479	0.00087768544
175	0x3cf8be18	0.030364081
176	0xbd4869d6	-0.048929058
177	0xbb3ec972	-0.002911177
178	0x3c2e1e03	0.010627273
179	0x3b61b5d5	0.0034440656
180	0x3d14c68a	0.036322154
181	0x3d1f1068	0.038834006
182	0xbcaefc72	-0.02136061
183	0xbce3f3dc	-0.027826242
184	0xbd01c1f0	-0.031679094
185	0x3a0373ad	0.00050144905
186	0x3b873c9e	0.004127099
187	0x3d3fe6ed	0.046851087
188	0x3c69f3e6	0.014279341
189	0xbc186ac1	-0.009302796
190	0xbd18167a	-0.03713081
191	0xbc03a887	-0.0080357855
192	0x3cec83da	0.028871465
193	0xbc04210c	-0.00806452
194	0x3c7ce47e	0.015435336
195	0x3d4f5771	0.0506205
196	0xbcd80d69	-0.026373582
197	0x3bba8e60	0.005693242
198	0x3cf27f62	0.029601756
199	0xbce2ee9f	-0.027701674
200	0x3c8c6b5a	0.017141033
201	0xbcc41cc1	-0.023939492
202	0x3d132a47	0.03592899
203	0x3d107c26	0.035274647
204	0x3d57a4a6	0.052647255
205	0xbbf2011d	-0.0073853866
206	0x3d69801e	0.057006948
207	0x3be407e7	0.00695895
208	0xbd2bc6ae	-0.041937523
209	0x3d186f51	0.037215535
210	0x3cf519b2	0.029919479
211	0xbd16bf66	-0.036803626
212	0xbceb1d0c	-0.028700374
213	0x3cd4ef2f	0.025992958
214	0x3c7b3447	0.015332288
215	0xbc7ab9d6	-0.015303096
216	0x3d064d49	0.03278855
217	0xbabe65d9	-0.0014526203
218	0x3cde027b	0.027100792
219	0x3c61a3bf	0.01377195
220	0x3cd8ad5e	0.026449855
221	0xbd08f862	-0.03344
222	0xbb9a8053	-0.0047150045
223	0xbcb6e1d1	-0.022324475
224	0x3bb1ab48	0.0054220296
225	0x3cfabbcb	0.030607125
226	0x3d6d9e14	0.058012083
227	0x3d7156ee	0.058920793
228	0x3cf97b75	0.030454377
229	0x3d2496d6	0.04018291
230	0xba8343fa	-0.0010014765
231	0x3cec8c0b	0.028875371
232	0x3d3c2b04	0.04593946
233	0xba699fc1	-0.000891205
234	0x3c9ec710	0.01938203
235	0xbc60ec47	-0.013728208
236	0x3b8103b4	0.003937209
237	0x3bb8dcbf	0.0056415494
238	0xbca3c98d	-0.019993568
239	0x3c228c5f	0.009921162
240	0x3bd37b88	0.006453935
241	0x3c7cc386	0.015427476
242	0x3b1f5038	0.0024309289
243	0x3d28a87a	0.041176297
244	0x3c91d292	0.017800603
245	0x3b2d0490	0.0026400425
246	0x3ce3506e	0.027748313
247	0x3d6829fd	0.05668067
248	0x3d2deece	0.04246407
249	0x3cfb548a	0.03067996
250	0xbb5d241e	-0.0033743451
251	0x3d2b958c	0.041890666
252	0xbbc98230	-0.0061495528
253	0x3c92fdf9	0.01794337
254	0x3c7e0390	0.015503779
255	0xbd0db601	-0.0345974

weight f4 [16]
0	0x3f7fc7da	0.99914324
1	0x3f807253	1.0034889
2	0x3f7fb6ff	0.99888605
3	0x3f803559	1.001628
4	0x3f807ebe	1.0038679
5	0x3f80e5c0	1.0070114
6	0x3f80f6a3	1.0075268
7	0x3f800590	1.0001698
8	0x3f801d1b	1.0008882
9	0x3f804206	1.0020149
10	0x3f7f7c44	0.9979899
11	0x3f7f687d	0.9976881
12	0x3f7f7159	0.9978233
13	0x3f7f51de	0.99734294
14	0x3f7ef146	0.99586904
15	0x3f808992	1.0041983

bias f4 [16]
0	0xbc088315	-0.008332034
1	0xbbcb3a8a	-0.0062020468
2	0x3ba7f019	0.0051250574
3	0xba97174e	-0.0011527331
4	0xbbba54f5	-0.005686397
5	0xbb7af3dc	-0.0038292324
6	0xbabedcb5	-0.0014561625
7	0x3bdf062c	0.0068061557
8	0xbc254671	-0.010087595
9	0x3a95f5b2	0.0011441021
10	0xbad453e8	-0.0016199322
11	0xbbbbf57c	-0.005736051
12	0xbb05e996	-0.0020433418
13	0xbc14930d	-0.009068263
14	0xbbd8bb3f	-0.0066141183
15	0xbac90c8f	-0.0015338826

weight f4 [32, 16, 5, 5]
0	0xbde4cdc0	-0.11172056
1	0xbdbd10d0	-0.09231722
2	0xbdd10ce7	-0.10207539
3	0x3ced0655	0.028933683
4	0xbcb59ad7	-0.02216856
5	0x3c296ed2	0.010341363
6	0xbcc89df8	-0.024489388
7	0x3c8cdf5a	0.017196346
8	0xbdb980c3	-0.090577625
9	0xbddc8f9c	-0.10769579
10	0xbd0b63fd	-0.034030903
11	0x3ca68d6e	0.02033111
12	0xbcec3e2e	-0.028838243
13	0x3d1a5c18	0.037685484
14	0x3de37825	0.111069
15	0x3cdc880c	0.026920341
16	0xbda4dfbc	-0.080504864
17	0xbde9a6b1	-0.11408747
18	0x3d5dd12b	0.054154556
19	0xbd9a0e2c	-0.07522234
20	0x3d327397	0.043567266
21	0xbcc4d6af	-0.02402815
22	0xbd09fa41	-0.033685926
23	0xbc02eab2	-0.007990526
24	0xbc20300a	-0.009777078
25	0x3d54a819	0.051918123
26	0x3dae2c8d	0.08504591
27	0xbe081e2b	-0.13292758
28	0x3da696a7	0.081342034
29	0xbdc38222	-0.09546305
30	0xbc0ea4c7	-0.008706278
31	0xbd6156d5	-0.05501445
32	0x3d6e916b	0.05824415
33	0x3d269135	0.040665824
34	0x3da24b81	0.079245575
35	0xbd21e851	-0.039528195
36	0xbd878efb	-0.06619068
37	0xbd96f855	-0.07371584
38	0xbd83bddc	-0.06432697
39	0xbcdca94a	-0.026936192
40	0xbd5481f0	-0.05188173
41	0x3d9446c9	0.07240064
42	0x3daf849c	0.08570215
43	0x3d289d85	0.041165847
44	0xbc933110	-0.01796773
45	0xbd59ee4d	-0.053205777
46	0xbbd33bc2	-0.0064463327
47	0x3de21920	0.110399485
48	0x3a79f120	0.00095345266
49	0xbd164637	-0.036688056
50	0xbd1b246d	-0.037876535
51	0xbd2510cb	-0.04029922
52	0xbd2f25ba	-0.04276059
53	0x3ca503b3	0.020143365
54	0xbdda61f2	-0.10663213
55	0xbc51d63d	-0.012807426
56	0x3c85a0b5	0.016311983
57	0x3a475545	0.00076039537
58	0xbdc3e2b6	-0.09564726
59	0xbcde3284	-0.027123697
60	0x3d35143e	0.044208758
61	0x3d41bc96	0.04729899
62	0x3d5cc72d	0.053900886
63	0x3d69cf68	0.057082564
64	0x3d96fa62	0.073719755
65	0xbc6874e2	-0.014188023
66	0x3dab7198	0.08371276
67	0xbcf53512	-0.029932532
68	0xbc42f2fc	-0.011898752
69	0x3c9d4eee	0.019202676
70	0x3c0bb292	0.008526461
71	0xbd3e7499	-0.046497915
72	0xbd6ee679	-0.058325265
73	0x3dd3d058	0.10342473
74	0x3df6198f	0.12016594
75	0xbdb7af36	-0.08968966
76	0x3df8a6cf	0.12141191
77	0x3bb2dcb6	0.0054584397
78	0x3dea3e38	0.114376485
79	0x3d0bd6ae	0.03414028
80	0xbabb5f36	-0.0014295343
81	0xbe0902b7	-0.13379942
82	0x3d0f795a	0.03502784
83	0xbdd3f792	-0.10349955
84	0x3bf0e69a	0.0073517086
85	0x3c5b3acb	0.013380717
86	0x3db24665	0.08704833
87	0xbaf874db	-0.0018955724
88	0x3d286ea2	0.041121133
89	0x3d18f1de	0.037340038
90	0xbd13df20	-0.03610146
91	0x3d2a5b42	0.041590936
92	0xbaa4d2a9	-0.0012574989
93	0xbd76592a	-0.060143627
94	0xbc34c7d5	-0.011033972
95	0xbcdd06bf	-0.026980756
96	0xbc4cd0b1	-0.012500928
97	0x3e01a7ec	0.12661713
98	0xbddbfa77	-0.10741132
99	0xbc0a87cc	-0.008455228
100	0xbc868b09	-0.016423719
101	0xbcdba59b	-0.026812365
102	0xbcb6919d	-0.02228623
103	0x3c354ce2	0.011065694
104	0x3da72eb7	0.08163207
105	0xbdd7f040	-0.10543871
106	0xbc92bbe1	-0.017911853
107	0x3c6ed71d	0.014577654
108	0x3d7768d2	0.0604027
109	0xbd9b2d0b	-0.07576951
110	0xbdfa41d7	-0.12219589
111	0xbd97279d	-0.073806025
112	0x3cecfef8	0.028930172
113	0x3ddcb3f7	0.10776513
114	0x3c4652fa	0.012104744
115	0xbd6ab493	-0.057301115
116	0xbdc17319	-0.09445781
117	0xbe098759	-0.13430537
118	0x3e0da9ae	0.13834259
119	0x3d36ae2c	0.044599697
120	0xbcee6980	-0.02910304
121	0xbd6914ac	-0.05690448
122	0x3bb4363b	0.005499629
123	0xbd414711	-0.047186915
124	0x3d9c3671	0.076275714
125	0x3d838133	0.06421127
126	0xbd0603fc	-0.032718644
127	0xbba81495	-0.0051294067
128	0xbd6fc558	-0.05853781
129	0x3d966b1a	0.07344647
130	0x3ddf92e8	0.10916692
131	0x3d742f4f	0.05961543
132	0x3e0bbf07	0.1364709
133	0xbe35bbe7	-0.1774746
134	0xbda8f890	-0.082505345
135	0xbd35f75e	-0.04442536
136	0xbde57e5a	-0.1120574
137	0xbd128a61	-0.0357765
138	0x3db922b6	0.09039824
139	0xbccff8b0	-0.025387138
140	0xbcafac63	-0.021444505
141	0x3c23da7f	0.010000824
142	0x3d803900	0.06260872
143	0xbd44bae4	-0.048029795
144	0x3e0ba723	0.13637976
145	0x3cf3bd06	0.02975322
146	0x3c136238	0.008995585
147	0x3dcfb5c4	0.10142091
148	0x3dac84f2	0.08423795
149	0x3c3e1de3	0.011603805
150	0xbd4bf9c8	-0.049798757
151	0xbdf3fe33	-0.11913719
152	0x3d9d2772	0.07673539
153	0xbae44327	-0.0017415032
154	0x3d683acd	0.0566967
155	0xbd90922e	-0.070591316
156	0xbca1fc58	-0.019773647
157	0x3be76854	0.0070619974
158	0x3e082a1d	0.13297315
159	0x3ce3f870	0.027828425
160	0xbd250d85	-0.040296096
161	0xbdd6c5b3	-0.10486927
162	0xbe14a4f8	-0.14516056
163	0xbd9ba427	-0.07599669
164	0x3cd073ed	0.025445903
165	0xbd04892b	-0.032357376
166	0x3c3eaa28	0.011637248
167	0x3dcb293d	0.09919975
168	0xbde38425	-0.11109189
169	0x3d4efbd3	0.050533127
170	0xbcf2305e	-0.029564079
171	0xbdcb944d	-0.099403955
172	0x3d3c4169	0.045960817
173	0xbd308498	-0.0430952
174	0x3d3c714a	0.04600648
175	0x3d8cc9ac	0.06874403
176	0xbd2d404a	-0.04229764
177	0x3e0329f8	0.12808979
178	0xbe4a23b9	-0.1974019
179	0x3e0c634e	0.13709757
180	0xbe4bb5f2	-0.19893625
181	0xbcbdb08a	-0.02315547
182	0x3d02538c	0.031817958
183	0xbd696158	-0.0569776
184	0xbc8a934d	-0.016915942
185	0x3cfd9739	0.030955898
186	0xbbe83301	-0.0070861583
187	0x3dd88688	0.10572535
188	0xbcb47b90	-0.022031575
189	0xbd5c0a9c	-0.053721055
190	0xbd618591	-0.05505902
191	0xbe1662b9	-0.14686097
192	0xbd8f9957	-0.07011669
193	0x3d94cf12	0.07266058
194	0xbd8a10a6	-0.06741457
195	0x3c9ab54c	0.018885277
196	0xbc2fc075	-0.010727038
197	0x3ba8bdff	0.0051496024
198	0x3d836ff3	0.06417837
199	0xbb33a871	-0.0027413631
200	0x3e04f1b1	0.12982823
201	0xbd2e15b9	-0.042501185
202	0x3d9acae8	0.075582325
203	0xbd2ad4df	-0.041706916
204	0xbd55a6c7	-0.052161004
205	0x3d32fb03	0.043696415
206	0x3ca4d6cc	0.020121954
207	0xbbfcbef7	-0.0077131945
208	0x3ddc83e9	0.10767347
209	0xbe10bb74	-0.14134008
210	0xbc1c4bb6	-0.009539535
211	0xbcb4bba9	-0.02206214
212	0xbcddf8d3	-0.027096188
213	0xbb770329	-0.0037691093
214	0x3b95d52c	0.004572531
215	0xbcc3adaa	-0.02388652
216	0x3d5217c3	0.051292192
217	0xbcb9384b	-0.02260985
218	0x3c9177c8	0.017757311
219	0xbce76e7d	-0.028250927
220	0x3d2cb666	0.042166136
221	0x3dfb2514	0.122629315
222	0xbd9ba18d	-0.07599173
223	0xbdb02ab5	-0.08601896
224	0xbd7dc5a5	-0.061956067
225	0x3d731d7d	0.059354294
226	0x3dd22e2e	0.10262714
227	0x3d28e2fe	0.0412321
228	0xbc386c8a	-0.0112563465
229	0xbe17a4f3	-0.14809017
230	0xbc8295ce	-0.015940573
231	0x3ce0747c	0.027399294
232	0xbd81275a	-0.06306334
233	0xbc1572ad	-0.009121579
234	0x3dec057b	0.11524483
235	0x3e072ee9	0.13201489
236	0xbdab3351	-0.08359397
237	0xbbb63fd8	-0.00556181
238	0x3dd82b16	0.10555093
239	0x3b976beb	0.004621019
240	0x3da5673c	0.08076331
241	0xbd118366	-0.035525702
242	0xbd8c23ed	-0.0684279
243	0x3cb3f7de	0.021968778
244	0x3d0327ea	0.032020487
245	0xbd976f33	-0.073942564
246	0x3e281925	0.16415842
247	0x3da40e56	0.08010547
248	0x3d32dcce	0.043667607
249	0x3df2dc58	0.118584335
250	0x3d9517ca	0.07279928
251	0xbd9ea48d	-0.07746229
252	0x3e20b167	0.15692674
253	0xbb783f42	-0.0037879501
254	0x3b8a2885	0.004216256
255	0x3c4ce19f	0.012504964

kernel f4 [32, 1, 5, 5]
0	0x3b7f9724	0.0039
1	0x3c7f9724	0.0156
2	0x3cbfb15b	0.0234
3	0x3c7f9724	0.0156
4	0x3b7f9724	0.0039
5	0x3c7f9724	0.0156
6	0x3d800000	0.0625
7	0x3dc01a37	0.0938
8	0x3d800000	0.0625
9	0x3c7f9724	0.0156
10	0x3cbfb15b	0.0234
11	0x3dc01a37	0.0938
12	0x3e0ff972	0.1406
13	0x3dc01a37	0.0938
14	0x3cbfb15b	0.0234
15	0x3c7f9724	0.0156
16	0x3d800000	0.0625
17	0x3dc01a37	0.0938
18	0x3d800000	0.0625
19	0x3c7f9724	0.0156
20	0x3b7f9724	0.0039
21	0x3c7f9724	0.0156
22	0x3cbfb15b	0.0234
23	0x3c7f9724	0.0156
24	0x3b7f9724	0.0039
25	0x3b7f9724	0.0039
26	0x3c7f9724	0.0156
27	0x3cbfb15b	0.0234
28	0x3c7f9724	0.0156
29	0x3b7f9724	0.0039
30	0x3c7f9724	0.0156
31	0x3d800000	0.0625
32	0x3dc01a37	0.0938
33	0x3d800000	0.0625
34	0x3c7f9724	0.0156
35	0x3cbfb15b	0.0234
36	0x3dc01a37	0.0938
37	0x3e0ff972	0.1406
38	0x3dc01a37	0.0938
39	0x3cbfb15b	0.0234
40	0x3c7f9724	0.0156
41	0x3d800000	0.0625
42	0x3dc01a37	0.0938
43	0x3d800000	0.0625
44	0x3c7f9724	0.0156
45	0x3b7f9724	0.0039
46	0x3c7f9724	0.0156
47	0x3cbfb15b	0.0234
48	0x3c7f9724	0.0156
49	0x3b7f9724	0.0039
50	0x3b7f9724	0.0039
51	0x3c7f9724	0.0156
52	0x3cbfb15b	0.0234
53	0x3c7f9724	0.0156
54	0x3b7f9724	0.0039
55	0x3c7f9724	0.0156
56	0x3d800000	0.0625
57	0x3dc01a37	0.0938
58	0x3d800000	0.0625
59	0x3c7f9724	0.0156
60	0x3cbfb15b	0.0234
61	0x3dc01a37	0.0938
62	0x3e0ff972	0.1406
63	0x3dc01a37	0.0938
64	0x3cbfb15b	0.0234
65	0x3c7f9724	0.0156
66	0x3d800000	0.0625
67	0x3dc01a37	0.0938
68	0x3d800000	0.0625
69	0x3c7f9724	0.0156
70	0x3b7f9724	0.0039
71	0x3c7f9724	0.0156
72	0x3cbfb15b	0.0234
73	0x3c7f9724	0.0156
74	0x3b7f9724	0.0039
75	0x3b7f9724	0.0039
76	0x3c7f9724	0.0156
77	0x3cbfb15b	0.0234
78	0x3c7f9724	0.0156
79	0x3b7f9724	0.0039
80	0x3c7f9724	0.0156
81	0x3d800000	0.0625
82	0x3dc01a37	0.0938
83	0x3d800000	0.0625
84	0x3c7f9724	0.0156
85	0x3cbfb15b	0.0234
86	0x3dc01a37	0.0938
87	0x3e0ff972	0.1406
88	0x3dc01a37	0.0938
89	0x3cbfb15b	0.0234
90	0x3c7f9724	0.0156
91	0x3d800000	0.0625
92	0x3dc01a37	0.0938
93	0x3d800000	0.0625
94	0x3c7f9724	0.0156
95	0x3b7f9724	0.0039
96	0x3c7f9724	0.0156
97	0x3cbfb15b	0.0234
98	0x3c7f9724	0.0156
99	0x3b7f9724	0.0039
100	0x3b7f9724	0.0039
101	0x3c7f9724	0.0156
102	0x3cbfb15b	0.0234
103	0x3c7f9724	0.0156
104	0x3b7f9724	0.0039
105	0x3c7f9724	0.0156
106	0x3d800000	0.0625
107	0x3dc01a37	0.0938
108	0x3d800000	0.0625
109	0x3c7f9724	0.0156
110	0x3cbfb15b	0.0234
111	0x3dc01a37	0.0938
112	0x3e0ff972	0.1406
113	0x3dc01a37	0.0938
114	0x3cbfb15b	0.0234
115	0x3c7f9724	0.0156
116	0x3d800000	0.0625
117	0x3dc01a37	0.0938
118	0x3d800000	0.0625
119	0x3c7f9724	0.0156
120	0x3b7f9724	0.0039
121	0x3c7f9724	0.0156
122	0x3cbfb15b	0.0234
123	0x3c7f9724	0.0156
124	0x3b7f9724	0.0039
125	0x3b7f9724	0.0039
126	0x3c7f9724	0.0156
127	0x3cbfb15b	0.0234
128	0x3c7f9724	0.0156
129	0x3b7f9724	0.0039
130	0x3c7f9724	0.0156
131	0x3d800000	0.0625
132	0x3dc01a37	0.0938
133	0x3d800000	0.0625
134	0x3c7f9724	0.0156
135	0x3cbfb15b	0.0234
136	0x3dc01a37	0.0938
137	0x3e0ff972	0.1406
138	0x3dc01a37	0.0938
139	0x3cbfb15b	0.0234
140	0x3c7f9724	0.0156
141	0x3d800000	0.0625
142	0x3dc01a37	0.0938
143	0x3d800000	0.0625
144	0x3c7f9724	0.0156
145	0x3b7f9724	0.0039
146	0x3c7f9724	0.0156
147	0x3cbfb15b	0.0234
148	0x3c7f9724	0.0156
149	0x3b7f9724	0.0039
150	0x3b7f9724	0.0039
151	0x3c7f9724	0.0156
152	0x3cbfb15b	0.0234
153	0x3c7f9724	0.0156
154	0x3b7f9724	0.0039
155	0x3c7f9724	0.0156
156	0x3d800000	0.0625
157	0x3dc01a37	0.0938
158	0x3d800000	0.0625
159	0x3c7f9724	0.0156
160	0x3cbfb15b	0.0234
161	0x3dc01a37	0.0938
162	0x3e0ff972	0.1406
163	0x3dc01a37	0.0938
164	0x3cbfb15b	0.0234
165	0x3c7f9724	0.0156
166	0x3d800000	0.0625
167	0x3dc01a37	0.0938
168	0x3d800000	0.0625
169	0x3c7f9724	0.0156
170	0x3b7f9724	0.0039
171	0x3c7f9724	0.0156
172	0x3cbfb15b	0.0234
173	0x3c7f9724	0.0156
174	0x3b7f9724	0.0039
175	0x3b7f9724	0.0039
176	0x3c7f9724	0.0156
177	0x3cbfb15b	0.0234
178	0x3c7f9724	0.0156
179	0x3b7f9724	0.0039
180	0x3c7f9724	0.0156
181	0x3d800000	0.0625
182	0x3dc01a37	0.0938
183	0x3d800000	0.0625
184	0x3c7f9724	0.0156
185	0x3cbfb15b	0.0234
186	0x3dc01a37	0.0938
187	0x3e0ff972	0.1406
188	0x3dc01a37	0.0938
189	0x3cbfb15b	0.0234
190	0x3c7f9724	0.0156
191	0x3d800000	0.0625
192	0x3dc01a37	0.0938
193	0x3d800000	0.0625
194	0x3c7f9724	0.0156
195	0x3b7f9724	0.0039
196	0x3c7f9724	0.0156
197	0x3cbfb15b	0.0234
198	0x3c7f9724	0.0156
199	0x3b7f9724	0.0039
200	0x3b7f9724	0.0039
201	0x3c7f9724	0.0156
202	0x3cbfb15b	0.0234
203	0x3c7f9724	0.0156
204	0x3b7f9724	0.0039
205	0x3c7f9724	0.0156
206	0x3d800000	0.0625
207	0x3dc01a37	0.0938
208	0x3d800000	0.0625
209	0x3c7f9724	0.0156
210	0x3cbfb15b	0.0234
211	0x3dc01a37	0.0938
212	0x3e0ff972	0.1406
213	0x3dc01a37	0.0938
214	0x3cbfb15b	0.0234
215	0x3c7f9724	0.0156
216	0x3d800000	0.0625
217	0x3dc01a37	0.0938
218	0x3d800000	0.0625
219	0x3c7f9724	0.0156
220	0x3b7f9724	0.0039
221	0x3c7f9724	0.0156
222	0x3cbfb15b	0.0234
223	0x3c7f9724	0.0156
224	0x3b7f9724	0.0039
225	0x3b7f9724	0.0039
226	0x3c7f9724	0.0156
227	0x3cbfb15b	0.0234
228	0x3c7f9724	0.0156
229	0x3b7f9724	0.0039
230	0x3c7f9724	0.0156
231	0x3d800000	0.0625
232	0x3dc01a37	0.0938
233	0x3d800000	0.0625
234	0x3c7f9724	0.0156
235	0x3cbfb15b	0.0234
236	0x3dc01a37	0.0938
237	0x3e0ff972	0.1406
238	0x3dc01a37	0.0938
239	0x3cbfb15b	0.0234
240	0x3c7f9724	0.0156
241	0x3d800000	0.0625
242	0x3dc01a37	0.0938
243	0x3d800000	0.0625
244	0x3c7f9724	0.0156
245	0x3b7f9724	0.0039
246	0x3c7f9724	0.0156
247	0x3cbfb15b	0.0234
248	0x3c7f9724	0.0156
249	0x3b7f9724	0.0039
250	0x3b7f9724	0.0039
251	0x3c7f9724	0.0156
252	0x3cbfb15b	0.0234
253	0x3c7f9724	0.0156
254	0x3b7f9724	0.0039
255	0x3c7f9724	0.0156

weight f4 [32, 32, 3, 3]
0	0x3d5d3ac1	0.05401111
1	0x3d4c85ae	0.049932174
2	0x3bac3aea	0.0052560465
3	0xbbe1f133	-0.0068952083
4	0x3d15c46c	0.036564276
5	0x3d25f40e	0.04051595
6	0x3d3c2601	0.04593468
7	0xbd0f1283	-0.034929764
8	0x3c5a5c77	0.013327709
9	0xbc4189f5	-0.011812677
10	0x3d200cfe	0.03907489
11	0xbd61fa3d	-0.055170286
12	0xbc86a94c	-0.016438149
13	0xbd53d8e6	-0.051720522
14	0x3b049722	0.0020231684
15	0x3ce5fd60	0.02807492
16	0xbc40c4b3	-0.011765647
17	0xbc8188b1	-0.01581225
18	0xbbebdec6	-0.0071981875
19	0x3d702f6b	0.05863897
20	0x3ce5bd47	0.028044356
21	0xbc7f0a45	-0.015566413
22	0x3cc3155e	0.0238139
23	0x3d30133e	0.0429871
24	0x3d03da41	0.032190565
25	0xbb4aa586	-0.0030921414
26	0x3b7423be	0.003725275
27	0x3d3b044c	0.045658395
28	0x3c221571	0.009892807
29	0x3d716ad3	0.058939766
30	0xbd35e485	-0.044407386
31	0x3d02929a	0.03187809
32	0xbcc78be7	-0.024358703
33	0x3cda144a	0.026621003
34	0x3a497714	0.00076852855
35	0xbcc4993a	-0.023998845
36	0xbd50783d	-0.05089592
37	0xbc7f524e	-0.015583588
38	0xbc1b6bc6	-0.009486144
39	0x3c2a097d	0.010378239
40	0x39a7c224	0.00031997368
41	0x3d6570ec	0.056015894
42	0x3d76e0a0	0.060272813
43	0x3d279d2a	0.040921368
44	0x3c4a297b	0.012338991
45	0x3d1f54ad	0.038899112
46	0x3d59d515	0.053181726
47	0x3d39f096	0.045395456
48	0x3c3e95c4	0.011632387
49	0xbd67fc2d	-0.056636978
50	0xbd65a90c	-0.05606942
51	0x3d1884bc	0.03723596
52	0xbd21aa40	-0.039469004
53	0x3d5f24e3	0.054478537
54	0xbc9ec8e6	-0.019382905
55	0x3c2605d9	0.01013323
56	0xbbc36433	-0.0059628724
57	0x3d6b419c	0.057435617
58	0x3cad0d7d	0.021124596
59	0xbc98140d	-0.018564248
60	0x3cb07d78	0.021544203
61	0xbd17aabe	-0.037028067
62	0xbc0d91ba	-0.008640701
63	0x3d3e931f	0.046527024
64	0x3d34dc6a	0.044155516
65	0x3d1c3ff6	0.038146935
66	0xbd225b52	-0.03963787
67	0xbd4d783f	-0.050163504
68	0xbcae50e8	-0.021278813
69	0xbd45dbc2	-0.04830528
70	0xbca61b29	-0.020276623
71	0x3b5f2290	0.00340477
72	0xbcb13e00	-0.02163601
73	0xbc942048	-0.0180818
74	0xbc85c110	-0.016327411
75	0x3d274ea1	0.04084647
76	0xbd0eb152	-0.034837075
77	0x3c20f7a9	0.009824672
78	0x3d6e7811	0.058219973
79	0xbc89f858	-0.016842052
80	0xbc99e632	-0.018786523
81	0xbbc68957	-0.0060588527
82	0x3d5037e9	0.05083457
83	0xbb8f9fa7	-0.0043830457
84	0x3bd36da6	0.00645228
85	0x3d305e7a	0.04305885
86	0x3ce78713	0.02826265
87	0x3d15b442	0.03654886
88	0x3d03543e	0.03206276
89	0x3d1fa911	0.038979594
90	0xbca829f7	-0.020527823
91	0x3d4e8cd1	0.05042726
92	0x3c853893	0.016262328
93	0x3c907f14	0.01763872
94	0xbd581d52	-0.052762337
95	0xbd2eab7f	-0.04264402
96	0xbc873ba6	-0.016507935
97	0xbcc62c49	-0.024191039
98	0x3d554ea5	0.052076954
99	0xbcd8847b	-0.02643036
100	0xbd217097	-0.039414015
101	0x3d7a8df7	0.061170544
102	0x3d2fe5ca	0.042943753
103	0xbcc36410	-0.023851424
104	0x3c92ebef	0.017934768
105	0xbbd7e1f5	-0.0065882155
106	0x3b8f7f54	0.0043791924
107	0x3d183726	0.03716197
108	0xbd00cfe4	-0.03144826
109	0xbd3c28ba	-0.045937277
110	0x3c29ff15	0.010375758
111	0xbcec3b24	-0.028836794
112	0x3cd73f33	0.026275253
113	0xbd486028	-0.048919827
114	0x3c95f7e9	0.01830669
115	0x3d23bdfb	0.0399761
116	0x3d21a871	0.03946728
117	0x3d21b42f	0.039478477
118	0x3c89d94d	0.01682725
119	0x3d7d93e8	0.061908633
120	0xbc4c3928	-0.012464799
121	0x3c922d80	0.017843962
122	0x3cb3f5bf	0.021967767
123	0x3d5f28d6	0.054482304
124	0x3d6685d0	0.056279957
125	0x3b56d9b4	0.003278357
126	0xbd4fcdb5	-0.050733287
127	0x3d6b3d67	0.057431605
128	0xbc7bde8d	-0.015372884
129	0xbd07b052	-0.033127137
130	0x3d09be02	0.03362847
131	0xbcac5f1d	-0.021041447
132	0x3cbc8362	0.023011867
133	0x3d6b3293	0.05742128
134	0xbc3df485	-0.0115939425
135	0x3d00813f	0.03137326
136	0x3d61c8a7	0.055122998
137	0x3d30259f	0.04300463
138	0x3d29407d	0.041321266
139	0x3d00f774	0.03148599
140	0xbc283574	-0.0102666505
141	0xbce05a31	-0.027386757
142	0xbd6aec17	-0.05735406
143	0x3cc6a9b2	0.024250839
144	0x3c62bf7b	0.013839598
145	0xbd302dae	-0.043012314
146	0xbc361dcf	-0.011115505
147	0xbd7132be	-0.058886282
148	0xbd0782b9	-0.03308365
149	0xbcdd1960	-0.026989639
150	0xbd328f78	-0.043593854
151	0x3d2987fb	0.041389447
152	0xba676bb7	-0.00088280014
153	0xbcab5496	-0.020914357
154	0xbcd13dbd	-0.025542134
155	0x3be35a63	0.006938265
156	0x3ccd9c2a	0.025098879
157	0xbd113a54	-0.035456017
158	0x3b11be22	0.0022238572
159	0x3d43ab6c	0.047770903
160	0xbd44dcb5	-0.048062045
161	0x3bdb6c52	0.0066962624
162	0xbc04f3b8	-0.008114748
163	0xbcb9d323	-0.022683686
164	0xbcf03d00	-0.029325962
165	0xbcdd3384	-0.027002104
166	0x3cfebae6	0.03109498
167	0xbb2d06d2	-0.002640177
168	0x3d64ab5e	0.05582749
169	0xbcde497b	-0.027134648
170	0x3c7f8517	0.015595696
171	0x3c8246f3	0.015902972
172	0x3d74430b	0.05963425
173	0xbd3bc6cc	-0.045843884
174	0xbd5d5a36	-0.05404111
175	0xbb80cf2e	-0.0039309477
176	0xbb87038e	-0.004120297
177	0x3d41c2e4	0.047305003
178	0xbd1b4b8e	-0.03791385
179	0x3c0bca9a	0.008532191
180	0x3d2385d7	0.03992256
181	0xbb99c91f	-0.004693165
182	0x3d52ebe2	0.051494487
183	0x3d113c2e	0.035457782
184	0xbd032bbc	-0.03202413
185	0xbcd5eb75	-0.026113251
186	0xbaeb4bcc	-0.0017951666
187	0x3d4b7c3d	0.04967903
188	0x3ccb3163	0.024803823
189	0xbb567d8e	-0.0032728645
190	0x3d2beebe	0.04197573
191	0xbc6f5af3	-0.014609086
192	0x3d0d543c	0.03450416
193	0xbc52c816	-0.012865087
194	0xbca97ca2	-0.020689312
195	0x3d03b4b4	0.032154754
196	0xbb22ca01	-0.0024839642
197	0x3c34d0a0	0.011036068
198	0xbd5fd26e	-0.05464404
199	0xba6110ea	-0.0008585589
200	0xbc233731	-0.009961889
201	0x3cdd9997	0.027050776
202	0x3cec2209	0.028824823
203	0xbd552882	-0.052040584
204	0x3d05a0c4	0.03262402
205	0xbccdff3d	-0.025146121
206	0xbd1ba9ef	-0.03800386
207	0xbabc632d	-0.0014372818
208	0xbcd235c4	-0.025660403
209	0xbd52139f	-0.051288243
210	0x3d62473c	0.055243716
211	0xbc9d7085	-0.019218693
212	0xbb0ebc1d	-0.0021779605
213	0xbc815ae2	-0.015790407
214	0x3b047d8b	0.002021643
215	0x3d3abac7	0.04558828
216	0x3d0d669f	0.034521695
217	0x3c72aeed	0.014812213
218	0x3c3c4745	0.011491601
219	0xbd1aa762	-0.037757285
220	0xbd718fb2	-0.05897493
221	0xbcca217d	-0.024674172
222	0x3c95e750	0.018298775
223	0x3c70efe1	0.014705629
224	0xbd6531d9	-0.05595574
225	0xbc87613f	-0.016525863
226	0x3c5b8a94	0.013399739
227	0x3cf59ecf	0.029982952
228	0xbce038a4	-0.027370758
229	0x3d2089df	0.039193984
230	0xbc915d27	-0.017744614
231	0x3ce4c847	0.02792753
232	0x3bd40875	0.0064707347
233	0x3d1740e3	0.036927115
234	0x3d26f3b0	0.040759742
235	0x3d6b9120	0.05751145
236	0x3aac7b95	0.0013159389
237	0xbca5940d	-0.020212198
238	0x3d4a1de6	0.04934492
239	0xba96eb96	-0.0011514302
240	0x3bd7f0fa	0.006590006
241	0x3d09c378	0.03363368
242	0x3b6e05ce	0.0036319378
243	0xbcf257c2	-0.029582862
244	0xbcd967b5	-0.02653871
245	0xbd5450ae	-0.051834755
246	0x3d1f8fa8	0.03895536
247	0xbb5635e3	-0.0032685928
248	0xbd49ffee	-0.04931634
249	0xbca26686	-0.019824278
250	0x3d6e5a80	0.058191776
251	0xbcabad3e	-0.020956632
252	0xbc30ae57	-0.010783753
253	0x3ce5499d	0.027989203
254	0x3c7c5c9f	0.015402942
255	0x3cb5919e	0.022164162

weight f4 [32]
0	0x3f7f8859	0.99817425
1	0x3f7fe4eb	0.99958676
2	0x3f80e209	1.006898
3	0x3f7f6fa9	0.99779755
4	0x3f7f454c	0.99715114
5	0x3f808981	1.0041963
6	0x3f8085c9	1.0040828
7	0x3f801280	1.0005646
8	0x3f812b76	1.0091388
9	0x3f80a929	1.0051624
10	0x3f80664a	1.0031216
11	0x3f7f01e5	0.99612266
12	0x3f7f43ef	0.99713033
13	0x3f808677	1.0041035
14	0x3f7fae7a	0.99875605
15	0x3f7e3498	0.99299
16	0x3f7f2e05	0.99679595
17	0x3f807353	1.0035194
18	0x3f802977	1.0012654
19	0x3f7ed6f4	0.9954674
20	0x3f805fa3	1.0029186
21	0x3f805310	1.0025349
22	0x3f8061c2	1.0029833
23	0x3f81be15	1.0136133
24	0x3f80b596	1.0055416
25	0x3f7f2ba1	0.9967595
26	0x3f7f7d0f	0.998002
27	0x3f7fbdeb	0.99899167
28	0x3f7edec9	0.99558693
29	0x3f8018f3	1.0007614
30	0x3f80d746	1.0065696
31	0x3f801d10	1.0008869

bias f4 [32]
0	0x38173306	3.6048725e-05
1	0xbbccb946	-0.0062476723
2	0xbba19edb	-0.004932267
3	0x39cbbb20	0.00038858596
4	0xbbc4340d	-0.0059876502
5	0x3a8e7d93	0.0010871164
6	0x3bb368c6	0.0054751365
7	0x3b0e9940	0.0021758825
8	0x3bbdbb16	0.0057901246
9	0xba32fac1	-0.00068275264
10	0x3ac9dc75	0.0015400784
11	0xbbd54118	-0.006508004
12	0xbad493d7	-0.0016218376
13	0x3b6f56c4	0.0036520222
14	0xbbb60173	-0.005554372
15	0xbb3a79c5	-0.0028453928
16	0xbb5cd7af	-0.0033697893
17	0x3b35a52e	0.0027716863
18	0xbabd289f	-0.0014431662
19	0xba7dd3d7	-0.00096827507
20	0xbb813e4a	-0.003944193
21	0x3bb3944f	0.0054803262
22	0xb96ca14e	-0.00022566805
23	0x3b98570c	0.0046490487
24	0x3be78800	0.007065773
25	0xb936ce31	-0.00017433685
26	0xb908e0ec	-0.0001305376
27	0xbbf4c982	-0.0074703107
28	0x3a94d4a6	0.0011354878
29	0xbbabfdb9	-0.005248752
30	0x3b0c702a	0.002142916
31	0x3abc78e1	0.0014379286
