models/model_patience_5 _gamma_2n_meniscus_axial_val_auc_0.7322_train_auc_0.7526_epoch_22.pth (torch, 886469 bytes, 32 tensors)

weight f4 [16, 1, 7, 7]
-0.32976225 -0.023694457 0.15265125 0.17454046 -0.023747364 -0.15353616 0.2527526 -0.1204901
0.3778835 -0.066238835 0.45045477 -0.13316391 -0.113633975 0.0084897885 -0.16711128 -0.001948208
-0.07850128 -0.04554762 0.1310269 -0.32125932 0.0025522062 0.114794746 -0.11517573 0.17942108
-0.007275524 -0.36178175 -0.16569005 -0.016058326 0.080824934 -0.14467877 0.19024631 0.23450087
-0.29086235 -0.04245194 -0.068821646 -0.07151028 -0.14353064 0.35686615 -0.17156678 -0.11761361
-0.48784763 0.161345 0.09494886 0.030184831 -0.112614974 -0.23607774 0.0621897 0.38802856
0.5840625 0.05519082 -0.24999097 0.3949306 -0.1984501 0.051740244 0.092232734 -0.019938855
-0.12405643 -0.1550538 0.2281174 -0.27408096 -0.12075175 -0.1846022 0.019004585 0.36472496
-0.14895931 0.20806034 0.059125252 -0.07068373 -0.04710361 -0.08544989 0.27475184 0.19422178
-0.19126166 -0.4885844 -0.22295915 -0.4581625 -0.2643884 0.045781635 -0.046935212 -0.0603024
0.1556526 -0.2893088 -0.11924047 -0.024654776 -0.3143384 0.08855812 0.04887743 -0.04297636
0.08264642 -0.06154185 -0.06910121 0.11464796 -0.06511887 -0.026774278 -0.16293922 0.12085959
0.2691046 -0.0349391 0.17856145 0.14710838 0.03025145 -0.05448174 0.009920968 0.17970602
0.12606232 -0.36109802 0.21546422 0.05907577 0.056041613 -0.020417763 -0.23274288 -0.059279315
0.08441026 -0.056878798 -0.2504676 0.19789362 0.15063968 0.050380863 0.10100404 -0.3955086
0.0496779 0.40046728 0.121814385 0.19569758 0.02530723 -0.23323196 0.20961133 0.1020927
-0.18077274 0.11329277 -0.1133357 0.20520516 -0.06912993 0.07869783 -0.20998038 0.09639697
-0.06130794 0.03336626 -0.23560786 -0.15995371 -0.06768135 0.03532375 -0.22980116 -0.015875556
0.0751038 -0.10065065 -0.025736652 -0.019229304 -0.2239893 0.31600073 0.06737664 0.30349126
0.08591041 -0.33866674 -0.32978958 0.05607518 -0.11669467 -0.04179905 0.22310227 -0.015056727
0.07012871 0.021458622 -0.12664157 -0.014242272 0.08456429 -0.062416747 0.0033988291 -0.28768557
-0.10695017 -0.012045363 -0.013816322 -0.014598674 0.3513505 0.17160738 -0.16286778 0.76210624
-0.18975046 -0.30233026 -0.14181273 -0.2125687 0.2437143 -0.0845226 -0.16436729 -0.13020368
-0.12895483 -0.085464574 -0.1800668 0.20716266 -0.02934643 -0.08011984 -0.05644326 -0.18379307
-0.013476981 0.13463435 0.03968275 -0.028791629 0.37710133 -0.18625641 0.388224 -0.13598442
-0.22329219 -0.04764871 0.16111661 0.25622922 -0.023224391 -0.37314984 0.12448877 -0.21714379
-0.20881781 -0.18296407 -0.34127378 0.009821596 -0.024566477 -0.11103222 0.30642447 0.23385052
0.343875 0.17938909 0.15396172 0.4808033 -0.039740548 0.09224626 0.26862955 -0.20541403
-0.031820867 -0.361594 0.12172754 0.18622743 0.14465103 -0.09612767 0.30606502 -0.470036
0.010930053 -0.3252939 -0.077982076 -0.39026526 0.12819175 -0.16576272 0.03875978 -0.2384964
0.1687179 -0.054703526 0.18485874 0.20033976 0.26845777 0.21639095 0.11096342 -0.09393384
-0.3200184 0.0737377 -0.13842307 0.23784003 0.20082656 -0.094050966 -0.37182987 -0.07845799
00000000: 99d6 a8be e11a c2bc 9c50 1c3e bcba 323e
00000010: d589 c2bc 9538 1dbe ca68 813e 83c3 f6bd
00000020: f279 c13e 3aa8 87bd 02a2 e63e 1f5c 08be
00000030: eeb8 e8bd c118 0b3c 381f 2bbe 035b ffba
00000040: 47c5 a0bd 2490 3abd ea2b 063e 1a7c a4be
00000050: ea42 273b 8219 eb3d 41e1 ebbd 29ba 373e
00000060: 8567 eebb 753b b9be a7aa 29be c08c 83bc
00000070: 8b87 a53d ac26 14be eecf 423e ff20 703e
00000080: e9eb 94be 16e2 2dbd 5df2 8cbd fb73 92bd
00000090: b2f9 12be 29b7 b63e 34af 2fbe 68df f0bd
000000a0: 2ac7 f9be a037 253e 8c74 c23d 2e46 f73c
000000b0: aea2 e6bd 5dbe 71be a0ba 7e3d aeab c63e
000000c0: 1f85 153f c50f 623d a2fd 7fbe 5834 ca3e
000000d0: 8136 4bbe 94ed 533d 84e4 bc3d cf56 a3bc
000000e0: 4c11 febd 6cc6 1ebe 9c97 693e 5754 8cbe
000000f0: b24c f7bd 5c08 3dbe 81af 9b3c 3bbd ba3e
00000100: ca88 18be c50d 553e 522d 723d a2c2 90bd
00000110: b7ef 40bd 5a00 afbd 46ac 8c3e 13e2 463e
00000120: 19da 43be bc27 fabe 674f 64be 4694 eabe
00000130: eb5d 87be 8685 3b3d 233f 40bd a6ff 76bd
00000140: 6563 1f3e 4820 94be 5934 f4bd d0f8 c9bc
00000150: f6f0 a0be f65d b53d b333 483d fb07 30bd
00000160: 8742 a93d 4f13 7cbd ef84 8dbd 8dcc ea3d
00000170: 0b5d 85bd bb55 dbbc 8ad9 26be 3c85 f73d
00000180: 14c8 893e 4d1c 0fbd d0d8 363e 94a3 163e
00000190: e4d1 f73c 3f28 5fbd 8e8b 223c db04 383e
000001a0: 7b16 013e d7e1 b8be a7a2 5c3e 6ff9 713d
000001b0: e48b 653d 2743 a7bc 2654 6ebe dece 72bd
000001c0: 49df ac3d bef9 68bd 4a3d 80be a0a4 4a3e
000001d0: 4a41 1a3e 2a5c 4e3d 35db ce3d 1a80 cabe
000001e0: 0e7b 4b3d 0c0a cd3e d279 f93d f264 483e
000001f0: 1c51 cf3c 5cd4 6ebe 5aa4 563e fa15 d13d
00000200: 7d1c 39be 0a06 e83d 8c1c e8bd 4d21 523e
00000210: fe93 8dbd 542c a13d 1905 57be c66b c53d
00000220: 091e 7bbd 0fab 083d 3043 71be e8ca 23be
00000230: 859c 8abd a3af 103d ff50 6bbe 740d 82bc
00000240: 05d0 993d ee21 cebd acd5 d2bc c686 9dbc
00000250: 735d 65be d9ca a13e c4fc 893d 3563 9b3e
00000260: ccf1 af3d ba65 adbe 2eda a8be 17af 653d
00000270: 9dfd eebd 7b35 2bbd ec74 643e 7eb0 76bc
00000280: a49f 8f3d fec9 af3c 54ae 01be 6b58 69bc
00000290: 0b30 ad3d b4a8 7fbd e4be 5e3b 864b 93be
000002a0: b108 dbbd ea59 45bc db5d 62bc 472f 6fbc
000002b0: 36e4 b33e d8b9 2f3e d0c6 26be 6519 433f
000002c0: f24d 42be 08cb 9abe 5b37 11be 9cab 59be
000002d0: 3e90 793e 2f1a adbd e64f 28be 1d54 05be
000002e0: bc0c 04be 0d08 afbd 6e63 38be 7322 543e
000002f0: ed67 f0bc df15 a4bd 0c31 67bd 4034 3cbe
00000300: 8ece 5cbc 96dd 093e 618a 223d 6cdc ebbc
00000310: 6d13 c13e 00ba 3ebe 4cc5 c63e 803f 0bbe
00000320: b5a6 64be 4b2b 43bd c1fb 243e 7a30 833e
00000330: 1441 bebc 7f0d bfbe f8f3 fe3d f15a 5ebe
00000340: 56d4 55be ef5a 3bbe 70bb aebe c2ea 203c
00000350: a33f c9bc dc64 e3bd abe3 9c3e 8376 6f3e
00000360: 6210 b03e c6b1 373e 24a8 1d3e da2b f63e
00000370: fcc6 22bd 9beb bc3d d089 893e 0e58 52be
00000380: 9956 02bd d922 b9be 4a4c f93d 67b2 3e3e
00000390: 661f 143e 95de c4bd 8eb4 9c3e 8fa8 f0be
000003a0: f713 333c ec8c a6be 11b5 9fbd d9d0 c7be
000003b0: b344 033e b4bd 29be 93c2 1e3d 6638 74be
000003c0: 63c4 2c3e ce10 60bd 9c4b 3d3e de25 4d3e
000003d0: 4c73 893e 9795 5d3e ca40 e33d 6360 c0bd
000003e0: 74d9 a3be cb03 973d c7be 0dbe 568c 733e
000003f0: 7aa5 4d3e cb9d c0bd 7c60 bebe 95ae a0bd

kernel f4 [16, 1, 5, 5]
0.0039 0.0156 0.0234 0.0156 0.0039 0.0156 0.0625 0.0938
0.0625 0.0156 0.0234 0.0938 0.1406 0.0938 0.0234 0.0156
0.0625 0.0938 0.0625 0.0156 0.0039 0.0156 0.0234 0.0156
0.0039 0.0039 0.0156 0.0234 0.0156 0.0039 0.0156 0.0625
0.0938 0.0625 0.0156 0.0234 0.0938 0.1406 0.0938 0.0234
0.0156 0.0625 0.0938 0.0625 0.0156 0.0039 0.0156 0.0234
0.0156 0.0039 0.0039 0.0156 0.0234 0.0156 0.0039 0.0156
0.0625 0.0938 0.0625 0.0156 0.0234 0.0938 0.1406 0.0938
0.0234 0.0156 0.0625 0.0938 0.0625 0.0156 0.0039 0.0156
0.0234 0.0156 0.0039 0.0039 0.0156 0.0234 0.0156 0.0039
0.0156 0.0625 0.0938 0.0625 0.0156 0.0234 0.0938 0.1406
0.0938 0.0234 0.0156 0.0625 0.0938 0.0625 0.0156 0.0039
0.0156 0.0234 0.0156 0.0039 0.0039 0.0156 0.0234 0.0156
0.0039 0.0156 0.0625 0.0938 0.0625 0.0156 0.0234 0.0938
0.1406 0.0938 0.0234 0.0156 0.0625 0.0938 0.0625 0.0156
0.0039 0.0156 0.0234 0.0156 0.0039 0.0039 0.0156 0.0234
0.0156 0.0039 0.0156 0.0625 0.0938 0.0625 0.0156 0.0234
0.0938 0.1406 0.0938 0.0234 0.0156 0.0625 0.0938 0.0625
0.0156 0.0039 0.0156 0.0234 0.0156 0.0039 0.0039 0.0156
0.0234 0.0156 0.0039 0.0156 0.0625 0.0938 0.0625 0.0156
0.0234 0.0938 0.1406 0.0938 0.0234 0.0156 0.0625 0.0938
0.0625 0.0156 0.0039 0.0156 0.0234 0.0156 0.0039 0.0039
0.0156 0.0234 0.0156 0.0039 0.0156 0.0625 0.0938 0.0625
0.0156 0.0234 0.0938 0.1406 0.0938 0.0234 0.0156 0.0625
0.0938 0.0625 0.0156 0.0039 0.0156 0.0234 0.0156 0.0039
0.0039 0.0156 0.0234 0.0156 0.0039 0.0156 0.0625 0.0938
0.0625 0.0156 0.0234 0.0938 0.1406 0.0938 0.0234 0.0156
0.0625 0.0938 0.0625 0.0156 0.0039 0.0156 0.0234 0.0156
0.0039 0.0039 0.0156 0.0234 0.0156 0.0039 0.0156 0.0625
0.0938 0.0625 0.0156 0.0234 0.0938 0.1406 0.0938 0.0234
0.0156 0.0625 0.0938 0.0625 0.0156 0.0039 0.0156 0.0234
0.0156 0.0039 0.0039 0.0156 0.0234 0.0156 0.0039 0.0156
00000000: 2497 7f3b 2497 7f3c 5bb1 bf3c 2497 7f3c
00000010: 2497 7f3b 2497 7f3c 0000 803d 371a c03d
00000020: 0000 803d 2497 7f3c 5bb1 bf3c 371a c03d
00000030: 72f9 0f3e 371a c03d 5bb1 bf3c 2497 7f3c
00000040: 0000 803d 371a c03d 0000 803d 2497 7f3c
00000050: 2497 7f3b 2497 7f3c 5bb1 bf3c 2497 7f3c
00000060: 2497 7f3b 2497 7f3b 2497 7f3c 5bb1 bf3c
00000070: 2497 7f3c 2497 7f3b 2497 7f3c 0000 803d
00000080: 371a c03d 0000 803d 2497 7f3c 5bb1 bf3c
00000090: 371a c03d 72f9 0f3e 371a c03d 5bb1 bf3c
000000a0: 2497 7f3c 0000 803d 371a c03d 0000 803d
000000b0: 2497 7f3c 2497 7f3b 2497 7f3c 5bb1 bf3c
000000c0: 2497 7f3c 2497 7f3b 2497 7f3b 2497 7f3c
000000d0: 5bb1 bf3c 2497 7f3c 2497 7f3b 2497 7f3c
000000e0: 0000 803d 371a c03d 0000 803d 2497 7f3c
000000f0: 5bb1 bf3c 371a c03d 72f9 0f3e 371a c03d
00000100: 5bb1 bf3c 2497 7f3c 0000 803d 371a c03d
00000110: 0000 803d 2497 7f3c 2497 7f3b 2497 7f3c
00000120: 5bb1 bf3c 2497 7f3c 2497 7f3b 2497 7f3b
00000130: 2497 7f3c 5bb1 bf3c 2497 7f3c 2497 7f3b
00000140: 2497 7f3c 0000 803d 371a c03d 0000 803d
00000150: 2497 7f3c 5bb1 bf3c 371a c03d 72f9 0f3e
00000160: 371a c03d 5bb1 bf3c 2497 7f3c 0000 803d
00000170: 371a c03d 0000 803d 2497 7f3c 2497 7f3b
00000180: 2497 7f3c 5bb1 bf3c 2497 7f3c 2497 7f3b
00000190: 2497 7f3b 2497 7f3c 5bb1 bf3c 2497 7f3c
000001a0: 2497 7f3b 2497 7f3c 0000 803d 371a c03d
000001b0: 0000 803d 2497 7f3c 5bb1 bf3c 371a c03d
000001c0: 72f9 0f3e 371a c03d 5bb1 bf3c 2497 7f3c
000001d0: 0000 803d 371a c03d 0000 803d 2497 7f3c
000001e0: 2497 7f3b 2497 7f3c 5bb1 bf3c 2497 7f3c
000001f0: 2497 7f3b 2497 7f3b 2497 7f3c 5bb1 bf3c
00000200: 2497 7f3c 2497 7f3b 2497 7f3c 0000 803d
00000210: 371a c03d 0000 803d 2497 7f3c 5bb1 bf3c
00000220: 371a c03d 72f9 0f3e 371a c03d 5bb1 bf3c
00000230: 2497 7f3c 0000 803d 371a c03d 0000 803d
00000240: 2497 7f3c 2497 7f3b 2497 7f3c 5bb1 bf3c
00000250: 2497 7f3c 2497 7f3b 2497 7f3b 2497 7f3c
00000260: 5bb1 bf3c 2497 7f3c 2497 7f3b 2497 7f3c
00000270: 0000 803d 371a c03d 0000 803d 2497 7f3c
00000280: 5bb1 bf3c 371a c03d 72f9 0f3e 371a c03d
00000290: 5bb1 bf3c 2497 7f3c 0000 803d 371a c03d
000002a0: 0000 803d 2497 7f3c 2497 7f3b 2497 7f3c
000002b0: 5bb1 bf3c 2497 7f3c 2497 7f3b 2497 7f3b
000002c0: 2497 7f3c 5bb1 bf3c 2497 7f3c 2497 7f3b
000002d0: 2497 7f3c 0000 803d 371a c03d 0000 803d
000002e0: 2497 7f3c 5bb1 bf3c 371a c03d 72f9 0f3e
000002f0: 371a c03d 5bb1 bf3c 2497 7f3c 0000 803d
00000300: 371a c03d 0000 803d 2497 7f3c 2497 7f3b
00000310: 2497 7f3c 5bb1 bf3c 2497 7f3c 2497 7f3b
00000320: 2497 7f3b 2497 7f3c 5bb1 bf3c 2497 7f3c
00000330: 2497 7f3b 2497 7f3c 0000 803d 371a c03d
00000340: 0000 803d 2497 7f3c 5bb1 bf3c 371a c03d
00000350: 72f9 0f3e 371a c03d 5bb1 bf3c 2497 7f3c
00000360: 0000 803d 371a c03d 0000 803d 2497 7f3c
00000370: 2497 7f3b 2497 7f3c 5bb1 bf3c 2497 7f3c
00000380: 2497 7f3b 2497 7f3b 2497 7f3c 5bb1 bf3c
00000390: 2497 7f3c 2497 7f3b 2497 7f3c 0000 803d
000003a0: 371a c03d 0000 803d 2497 7f3c 5bb1 bf3c
000003b0: 371a c03d 72f9 0f3e 371a c03d 5bb1 bf3c
000003c0: 2497 7f3c 0000 803d 371a c03d 0000 803d
000003d0: 2497 7f3c 2497 7f3b 2497 7f3c 5bb1 bf3c
000003e0: 2497 7f3c 2497 7f3b 2497 7f3b 2497 7f3c
000003f0: 5bb1 bf3c 2497 7f3c 2497 7f3b 2497 7f3c

weight f4 [16]
0.9960225 1.0106604 0.99680614 1.0052019 0.9930742 0.99802107 0.995004 1.008551
1.0065265 1.001856 0.9950759 1.0083762 0.99563134 1.0069064 0.99713004 1.0004977
00000000: 55fb 7e3f 525d 813f b02e 7f3f 75aa 803f
00000010: 1c3a 7e3f 4f7e 7f3f 95b8 7e3f 3318 813f
00000020: dcd5 803f d13c 803f 4bbd 7e3f 7912 813f
00000030: b2e1 7e3f 4fe2 803f ea43 7f3f 4f10 803f

bias f4 [16]
-0.005761857 0.009795876 0.00026560895 -0.0014439217 -0.00857106 -0.0044992846 -0.0021762569 0.004928883
0.0012678494 0.00021961147 -0.0069891918 0.00041682055 -0.0055759083 0.0064064795 -0.0035697212 -0.00458653
00000000: f6cd bcbb e27e 203c 6e41 8b39 f941 bdba
00000010: a26d 0cbc bc6e 93bb 889f 0ebb 7882 a13b
00000020: f72d a63a 8147 6639 9705 e5bb b588 da39
00000030: 1cb6 b6bb 72ed d13b fcf1 69bb 9a4a 96bb

weight f4 [16, 16, 5, 5]
0.041314933 0.01616268 -0.011319171 -0.049760252 0.016788311 -0.0025361136 -0.011926826 -0.0017294736
0.0059545366 0.026636552 0.045875542 -0.00222448 0.015847646 -0.031700958 0.045002874 -0.01564428
0.045504514 0.02380473 0.046223354 0.015888859 -0.003144866 -0.018062446 -0.013379471 0.0021769442
0.0081661325 -0.016156375 0.015387262 0.038491853 -0.01764099 -0.009108542 -0.02995564 0.024520373
0.030082725 -0.014327727 -0.0014720868 0.03846668 0.033648666 0.034504823 0.04452024 0.04275992
-0.04897441 -0.02520498 0.019327987 0.049007498 -0.038460463 -0.018252568 -0.04564966 0.011724589
-0.024594378 0.006654393 0.039674606 0.020203859 -0.0140923755 0.039497163 0.0435626 0.01749921
0.039765928 0.017764352 0.020029731 -0.030222045 0.032029256 -0.012874756 0.027560778 -0.0057550054
0.011269175 0.029546509 0.012249306 0.01158414 0.0011759601 0.022767507 -0.03181894 0.01564636
-0.02904275 -0.020403275 0.023210984 0.006553918 0.031027017 0.020516526 0.036131036 0.0169069
0.030612133 0.032716624 -0.02620943 0.03959263 0.049888548 -0.030616665 0.03943319 -0.0027384413
-0.008169145 0.038828064 -0.022561453 -0.019658297 0.03740568 0.015694974 -0.043348905 0.036259487
-0.03660648 -0.003956693 0.047276564 -0.042872258 -0.015612126 0.029761879 -0.029491385 0.030128155
-0.048273157 -0.009097391 -0.042837188 0.025271546 -0.0024732838 -0.042391784 0.03450832 0.016470563
-0.037950955 0.027177174 -0.044588465 -0.003080075 0.041901123 0.029377928 -0.041850723 0.011399253
-0.038291585 0.04520122 0.03268123 0.04173149 -0.03361003 0.04687704 0.008157249 -0.043390542
-0.011528837 -0.020276628 -0.015425827 0.015798435 -0.036851656 0.040978298 -0.013476926 -0.0044220714
0.024100157 -0.0015798017 0.016663564 0.006682452 0.038266923 -0.03238283 0.013382867 -0.017306736
-0.015744975 0.05115658 0.030009642 0.041266616 0.050395064 0.047308378 -0.045189425 0.019937221
-0.023503065 -0.047475122 0.04170514 0.0062074577 -0.04224578 0.027663663 0.0126848575 0.04875464
-0.029657884 0.025946377 0.008924977 0.011355428 -0.01854793 -0.0033071828 -7.153046e-05 -0.0012715956
0.008591966 -0.04761474 0.046128795 0.024913885 0.0044350047 -0.017599445 0.028220443 0.00029705564
-0.032762107 0.04105419 -0.029725093 0.05300913 0.032201163 -0.04179184 -0.02934006 0.011196537
-0.034648124 -0.016299674 -0.030864937 0.010109891 0.021987941 0.0029313413 -0.04259764 -0.040443454
-0.04451537 0.00079599617 -0.0056357305 -0.036055934 -0.026672054 0.040837497 0.033201706 -0.021515148
-0.017104408 0.027816704 -0.026355335 0.00083434745 0.011904042 -0.029274708 -0.046653047 0.0118555045
-0.005977883 0.009210342 -0.010425994 -0.01991105 0.009114374 0.018583406 0.040709164 0.042658146
0.023584068 0.0046900907 -0.03262771 -0.03788984 -0.04611736 0.003998513 0.0031603163 -0.015258909
0.0013740212 0.03280898 -0.03028549 -0.02377213 0.0142057715 0.044182763 -0.0106127225 -0.017624289
-0.024886152 0.04242677 0.02134315 0.032515295 -0.014323442 -0.017836155 -0.015543058 0.004241631
-0.046278015 0.035712954 0.0013703106 0.010812624 -0.029689891 0.035552584 0.01579543 -0.008475288
-0.006704609 0.017288193 0.047333434 0.020880857 0.045200285 -0.043452084 -0.024241304 0.00013695644
00000000: d939 293d 9967 843c 0b74 39bc 68d1 4bbd
00000010: a487 893c ed34 26bb bc68 43bc 81af e2ba
00000020: 461e c33b e634 da3c fee7 3b3d 95c8 11bb
00000030: ecd2 813c ddd8 01bd ef54 383d 6f28 80bc
00000040: f162 3a3d 2302 c33c b354 3d3d 5a29 823c
00000050: 191a 4ebb b2f7 93bc 9235 5bbc 10ab 0e3b
00000060: 3ecb 053c 605a 84bc db1a 7c3c a2a9 1d3d
00000070: d683 90bc ff3b 15bc 8865 f5bc f3de c83c
00000080: 0c70 f63c d8be 6abc 09f3 c0ba 3d8f 1d3d
00000090: 2fd3 093d ee54 0d3d db5a 363d 0725 2f3d
000000a0: 6499 48bd ad7a cebc ba55 9e3c 16bc 483d
000000b0: b888 1dbd 6986 95bc 23fb 3abd 7e18 403c
000000c0: 267a c9bc 180d da3b d781 223d 9082 a53c
000000d0: b5e3 66bc c7c7 213d b26e 323d 815a 8f3c
000000e0: 99e1 223d 8c86 913c 6415 a43c 3994 f7bc
000000f0: 1c31 033d a4f0 52bc 24c7 e13c 7c94 bcbb
00000100: 59a2 383c 850b f23c 50b1 483c 68cb 3d3c
00000110: ac22 9a3a ec82 ba3c 9454 02bd cc2c 803c
00000120: 10eb edbc c524 a7bc f624 be3c 40c2 d63b
00000130: 5f2c fe3c 4612 a83c 23fe 133d 5780 8a3c
00000140: 4cc6 fa3c de01 063d 29b5 d6bc e22b 223d
00000150: ef57 4c3d cdcf fabc b284 213d 6c77 33bb
00000160: e1d7 05bc 2d0a 1f3d ccd2 b8bc 700a a1bc
00000170: b336 193d bf92 803c 9f8e 31bd d484 143d
00000180: adf0 15bd 26a7 81bb 12a5 413d d29a 2fbd
00000190: 01ca 7fbc 2fcf f33c eb97 f1bc 52cf f63c
000001a0: 13ba 45bd 390d 15bc 0c76 2fbd 4606 cf3c
000001b0: d116 22bb 02a3 2dbd 9958 0d3d 46ed 863c
000001c0: 7672 1bbd aaa2 de3c 65a2 36bd 15db 49bb
000001d0: 83a0 2b3d fba9 f03c aa6b 2bbd efc3 3a3c
000001e0: a3d7 1cbd ea24 393d c1dc 053d a4ee 2a3d
000001f0: acaa 09bd 2402 403d fba5 053c 48ba 31bd
00000200: 72e3 3cbc 2c1b a6bc 9cbc 7cbc b86b 813c
00000210: c3f1 16bd dcd8 273d 53ce 5cbc 06e7 90bb
00000220: b16d c53c 5911 cfba 0782 883c 78f8 da3b
00000230: c7bd 1c3d dca3 04bd d043 5b3c dbc6 8dbc
00000240: 9bfb 80bc 9089 513d c8d6 f53c 2f07 293d
00000250: 0e6b 4e3d 6ec6 413d 8c18 39bd 6253 a33c
00000260: 8089 c0bc 4675 42bd 02d3 2a3d ee67 cb3b
00000270: e909 2dbd e89e e23c 26d4 4f3c f2b2 473d
00000280: 17f5 f2bc 7f8d d43c 113a 123c 1e0c 3a3c
00000290: d4f1 97bc 52bd 58bb a002 96b8 abab a6ba
000002a0: 51c5 0c3c ac07 43bd 8cf1 3c3d 3418 cc3c
000002b0: 8453 913b b62c 90bc 8f2e e73c 22be 9b39
000002c0: 8f31 06bd 7028 283d 0a82 f3bc 1a20 593d
000002d0: 5ee5 033d ec2d 2bbd 915a f0bc ae71 373c
000002e0: 31eb 0dbd e586 85bc 77d8 fcbc f5a3 253c
000002f0: 0e20 b43c bf1b 403b dd7a 2ebd 09a8 25bd
00000300: c055 36bd 66aa 503a efab b8bb 63af 13bd
00000310: 5a7f dabc 3845 273d 83fe 073d 8940 b0bc
00000320: 8b1e 8cbc dbdf e33c 25e7 d7bc 1cb8 5a3a
00000330: 2c09 433c 83d1 efbc 4417 3fbd 973d 423c
00000340: 1ee2 c3bb f9e6 163c cad1 2abc 801c a3bc
00000350: 7554 153c 3a3c 983c a7be 263d 4fba 2e3d
00000360: 6033 c13c 55af 993b a2a4 05bd 6032 1bbd
00000370: 8fe5 3cbd f505 833b 4f1d 4f3b 8100 7abc
00000380: 8018 b43a b662 063d 4719 f8bc c5bd c2bc
00000390: 53bf 683c fcf8 343d fce0 2dbc d060 90bc
000003a0: 0bde cbbc b1c7 2d3d d4d7 ae3c c22e 053d
000003b0: dfac 6abc 211d 92bc 4fa8 7ebc 61fd 8a3b
000003c0: 048e 3dbd bf47 123d fe9b b33a 6f27 313c
000003d0: 3738 f3bc 969f 113d 6b65 813c efdb 0abc
000003e0: 56b2 dbbb f89f 8d3c b4e0 413d 550e ab3c
000003f0: ef23 393d d0fa 31bd b395 c6bc f79b 0f39

weight f4 [16]
0.9976898 1.0029942 0.9996964 1.0006098 1.0092044 1.0091556 0.99638367 1.0002452
1.0006751 1.0054995 1.0048963 1.0052606 1.0036759 1.0018296 0.99716926 1.0022329
00000000: 9968 7f3f 1d62 803f 1aec 7f3f fb13 803f
00000010: 9c2d 813f 032c 813f 0013 7f3f 0908 803f
00000020: 1f16 803f 35b4 803f 71a0 803f 61ac 803f
00000030: 7478 803f f43b 803f 7c46 7f3f 2b49 803f

bias f4 [16]
-0.0006805856 -0.00027114956 -0.0062503777 -0.0053022336 -0.0025235077 -0.0042887516 -0.0029293268 -0.00059772475
-0.0022466495 -0.004416546 0.004112573 -0.004232688 -0.005676938 0.00047841537 -0.00131829 -0.0019316942
00000000: 5469 32ba 1429 8eb9 f8cf ccbb 5cbe adbb
00000010: 6f61 25bb a888 8cbb f3f9 3fbb a1b0 1cba
00000020: 863c 13bb acb8 90bb c3c2 863b 5cb2 8abb
00000030: 9c05 babb d3d3 fa39 79ca acba e730 fdba

weight f4 [16, 16, 5, 5]
-0.018988047 0.019416807 -0.019622007 -0.0500799 -0.03949045 -0.026713971 0.03813329 -0.040507305
-0.025786906 -0.013364849 0.04496762 0.009584651 0.04298396 0.008737229 -0.014139061 -0.025881195
0.007890485 -0.0262692 0.027882881 0.0065155798 -0.017144943 0.013333868 0.018601863 0.000116474075
0.010705107 -0.027231535 0.052269045 0.005443362 -0.035293702 0.018925365 -0.01391214 0.049740802
-0.027960505 0.028485458 -0.0032347278 -0.00023509009 0.006964275 0.021067142 -0.039515503 0.00048881886
-0.00096696854 0.0132368775 -0.014789847 0.003465286 -0.021213438 0.030461244 0.05023461 -0.046016794
0.021762984 -0.041063093 0.019179445 0.043095887 0.005317449 -0.027511595 0.005600311 0.015657919
-0.0029434552 -0.033908974 -0.027640335 -0.03390537 -0.018714838 0.049721215 0.037660386 0.0042275474
0.04376025 -0.018455153 -0.025618654 0.018042952 -0.012170712 -0.017507466 0.022077505 0.011105382
-0.0274208 -0.037927825 0.02417876 0.0061203237 0.03866327 0.024064947 -0.0020237942 0.008244519
0.009758939 0.0043136496 -0.0187 -0.047997147 -0.036591295 -0.0133655835 -0.01651013 0.04043929
0.04069029 0.018540038 0.0499819 0.017203825 0.04577142 0.046205394 0.009665956 0.021478571
-0.024002835 0.023940284 -0.0015518721 -0.029976863 0.038268555 0.0005362025 -0.026915941 -0.024668446
-0.0051277694 0.042416517 0.021380948 0.016489677 -0.028401734 0.021847995 -0.0033227387 -0.0038684856
0.03525064 -0.019932635 -0.05165054 0.024682833 0.04750811 -0.001383962 -0.003085952 0.02514685
-0.030164206 -0.029435458 0.021302924 -0.01753716 0.035764743 -0.0065053585 0.031774502 0.008175539
-0.040385544 0.04911131 0.026226507 -0.014869735 0.016628392 0.03929228 -0.018179795 0.04097238
-0.03295785 0.018100169 0.038907256 -0.024763415 -0.025609132 0.008320571 -0.0402125 -0.010981189
-0.03479223 0.0039928355 0.031122407 0.044174466 0.016194915 0.00815717 -0.0063968254 0.009698629
0.0016815185 -0.033852357 0.015162814 -0.008404742 0.03373399 -0.008860411 0.03708786 -0.046210594
-0.013788228 0.038057808 0.007411534 0.036386 -0.037399445 -0.020683527 -0.024859142 -0.04487079
0.01578704 -0.00415668 0.017308718 0.025328927 0.017884566 -0.030504877 0.004758997 0.031243352
-0.048923932 -0.003055813 0.010746642 0.0040413304 0.03789884 0.039821025 -0.0201673 -0.026451834
-0.030381585 0.0016442984 0.0054236525 0.04891623 0.016594125 -0.0072490103 -0.03717547 -0.0074485727
0.030427506 -0.0060211504 0.01770791 0.05012822 -0.02584896 0.00724444 0.031869605 -0.024865415
0.012810701 -0.026648916 0.035714436 0.03482835 0.052100796 -0.011516045 0.055255767 0.004432711
-0.048064895 0.029776663 0.027680246 -0.038657553 -0.03261556 0.017644234 0.007002274 -0.013193277
0.033683628 -0.002687395 0.023015605 0.008832907 0.027453456 -0.03250162 -0.0049498174 -0.025197258
-0.0017675332 0.026186028 0.054005943 0.05395891 0.024122668 0.033768 -0.0076294113 0.022048345
0.038792193 -0.006291336 0.015180943 -0.02134025 -0.0046286234 -0.0026544686 -0.026388705 0.004988
-0.0008725495 0.006825984 -0.005876498 0.03292862 0.012099405 -0.0051167295 0.019057486 0.046914637
0.032355484 0.024035238 -0.004895722 0.043634158 -0.00260372 0.019734707 0.017752338 -0.038651906
00000000: d28c 9bbc ff0f 9f3c 55be a0bc 9520 4dbd
00000010: bdc0 21bd 42d7 dabc a731 1c3d fdea 25bd
00000020: 103f d3bc 3df8 5abc f82f 383d f108 1d3c
00000030: f30f 303d 9826 0f3c 85a7 67bc cd04 d4bc
00000040: 1847 013c 8132 d7bc a46a e43c a580 d53b
00000050: 8d73 8cbc 4c76 5a3c ef62 983c 8b43 f438
00000060: 7964 2f3c ab14 dfbc 1118 563d 3b5e b23b
00000070: 2190 10bd 5e09 9b3c bfef 63bc 03bd 4b3d
00000080: 6e0d e5bc 565a e93c bafd 53bb 8482 76b9
00000090: 9334 e43b 0095 ac3c 02db 21bd 1424 003a
000000a0: 297c 7dba 7ddf 583c 1d51 72bc da19 633b
000000b0: cec7 adbc dc89 f93c cec2 4d3d 1b7c 3cbd
000000c0: 4948 b23c c631 28bd 361e 9d3c 5085 303d
000000d0: ff3d ae3b ff5f e1bc d082 b73b 0945 803c
000000e0: fce6 40bb 23e4 0abd fc6d e2bc 5be0 0abd
000000f0: dc4f 99bc 79a8 4b3d c741 1a3d 3d87 8a3b
00000100: f33d 333d 432f 97bc 36de d1bc d0ce 933c
00000110: ab67 47bc d16b 8fbc e2db b43c 59f3 353c
00000120: 96a1 e0bc 355a 1bbd 8912 c63c ff8c c83b
00000130: 615d 1e3d da23 c53c a2a1 04bb 0514 073c
00000140: f5e3 1f3c 8459 8d3b be30 99bc a898 44bd
00000150: c1e0 15bd 52fb 5abc 4140 87bc aba3 253d
00000160: ddaa 263d 47e1 973c d2b9 4c3d 09ef 8c3c
00000170: d07a 3b3d de41 3d3d f55d 1e3c d4f3 af3c
00000180: 98a1 c4bc 6a1e c43c 3068 cbba 0a92 f5bc
00000190: 7dbf 1c3d f18f 0c3a d27e dcbc 7b15 cabc
000001a0: d906 a8bb f1bc 2d3d 1927 af3c 5c15 873c
000001b0: c1aa e8bc 91fa b23c 4ec2 59bb 6b86 7dbb
000001c0: fa62 103d c449 a3bc 848f 53bd a733 ca3c
000001d0: dd97 423d 0f66 b5ba af3d 4abb c400 ce3c
000001e0: ed1a f7bc a122 f1bc 7883 ae3c 17aa 8fbc
000001f0: 0d7e 123d e72a d5bb fb25 023d b2f2 053c
00000200: 506b 25bd f128 493d f9d8 d63c 30a0 73bc
00000210: 4438 883c f1f0 203d cbed 94bc a8d2 273d
00000220: cffe 06bd ce46 943c 375d 1f3d a5dc cabc
00000230: 3eca d1bc 0153 083c ddb5 24bd 72ea 33bc
00000240: 4c82 0ebd 55d6 823b 6bf4 fe3c 49f0 343d
00000250: 33ab 843c a7a5 053c 769c d1bb 00e7 1e3c
00000260: 6666 dc3a c5a8 0abd 746d 783c 0bb4 09bc
00000270: a72c 0a3d 422b 11bc 71e9 173d 5247 3dbd
00000280: 05e8 61bc 81e2 1b3d 74dc f23b 7d09 153d
00000290: 2930 19bd 8070 a9bc 66a5 cbbc 6fca 37bd
000002a0: d353 813c c234 88bb 03cb 8d3c 9c7e cf3c
000002b0: a782 923c 5de5 f9bc 5cf1 9b3b 0ff2 ff3c
000002c0: 7664 48bd 0944 48bb af12 303c 236d 843b
000002d0: d03b 1b3d 5f1b 233d e535 a5bc 84b1 d8bc
000002e0: cde2 f8bc 8085 d73a e5b8 b13b 635c 483d
000002f0: 67f0 873c 1b89 edbb 4e45 18bd 2813 f4bb
00000300: 1b43 f93c 124d c5bb 2e10 913c 4053 4d3d
00000310: 33c1 d3bc c462 ed3b b489 023d 8eb2 cbbc
00000320: f9e3 513c d44e dabc 4d49 123d 2ca8 0e3d
00000330: a567 553d cbad 3cbc df53 623d 4640 913b
00000340: b2df 44bd 30ee f33c afc1 e23c 6257 1ebd
00000350: e597 05bd a48a 903c 5573 e53b 9d28 58bc
00000360: d8f7 093d 021f 30bb 398b bc3c e6b7 103c
00000370: 12e6 e03c 6b20 05bd 1432 a2bb 7b6a cebc
00000380: 93ac e7ba 1584 d63c 5635 5d3d 0504 5d3d
00000390: e79c c53c 5050 0a3d 2400 fabb bb9e b43c
000003a0: 90e4 1e3d 8d27 cebb 7db9 783c bfd1 aebc
000003b0: b5ab 97bb 98f6 2dbb 202d d8bc 6072 a33b
000003c0: cebb 64ba 81ac df3b a38f c0bb 29e0 063d
000003d0: 953c 463c 3daa a7bb 721e 9c3c 9029 403d
000003e0: 2f87 043d 8ce5 c43c 4b6c a0bb bbb9 323d
000003f0: 2ca3 2abb aeaa a13c 5a6d 913c 7651 1ebd

weight f4 [16]
0.99853075 0.9988791 1.0027368 1.0005394 1.0058215 0.9957472 1.0035671 1.0027885
0.9992008 1.0051993 1.0044522 1.0026762 1.0005631 0.9991264 1.0009152 1.0007555
00000000: b69f 7f3f 8ab6 7f3f ae59 803f ad11 803f
00000010: c2be 803f 4ae9 7e3f e374 803f 605b 803f
00000020: a0cb 7f3f 5faa 803f e491 803f b257 803f
00000030: 7412 803f bfc6 7f3f fd1d 803f c218 803f

bias f4 [16]
-0.0059067374 0.0006305945 0.0020683534 -0.0026536 0.0022099991 -0.0023567693 -0.0023320587 0.0024871572
-0.00079724536 0.0011014863 0.0031900203 -0.0013171446 0.0024364935 0.0004832866 -0.0008989411 0.002007132
00000000: 4e8d c1bb 7b4e 253a 368d 073b 05e8 2dbb
00000010: a2d5 103b 0774 1abb 74d5 18bb 93ff 223b
00000020: 3bfe 50ba bf5f 903a a90f 513b 0aa4 acba
00000030: 94ad 1f3b a161 fd39 eba6 6bba 168a 033b

weight f4 [32, 16, 5, 5]
-0.1095557 -0.09143305 -0.102131695 0.02796492 -0.02436014 0.013285324 -0.022508258 0.018631762
-0.089992054 -0.10808285 -0.030889926 0.02279096 -0.026587347 0.039465114 0.11224608 0.029306134
-0.07884623 -0.1123446 0.05608269 -0.0737242 0.045241047 -0.02330322 -0.03310745 -0.0071663135
-0.009286176 0.064239964 0.09639113 -0.1249313 0.086555414 -0.093149886 0.0066876127 -0.04171799
0.06488926 0.04218403 0.07889754 -0.0242383 -0.053069763 -0.06608128 -0.062240362 -0.028204903
-0.0381335 0.084327295 0.0941736 0.044599857 -0.018228393 -0.041619137 0.0035290136 0.11719707
0.0044820746 -0.034832377 -0.03958587 -0.041943662 -0.044681363 0.018076308 -0.1086022 -0.013861105
0.015101318 -0.0008049523 -0.097550675 -0.028859615 0.04348955 0.04626418 0.052499533 0.055368792
0.07205763 -0.014776924 0.08262538 -0.03123369 -0.013304233 0.017690616 0.008224449 -0.047299396
-0.059036016 0.103041634 0.11995188 -0.09214472 0.11915372 0.0033540016 0.11268754 0.032882318
-0.0039104917 -0.13624291 0.032803267 -0.10537712 0.0057904096 0.011608426 0.08513881 -0.0035788598
0.039581906 0.03585317 -0.037183616 0.0404985 -0.0020991773 -0.060906295 -0.012089386 -0.027695036
-0.013061139 0.12632632 -0.107571125 -0.0089103235 -0.019231992 -0.029463185 -0.02402191 0.009897515
0.07990042 -0.10734871 -0.019644935 0.013307647 0.059330318 -0.07740307 -0.123875655 -0.07538006
0.027331969 0.106336005 0.010222448 -0.059576523 -0.09685176 -0.13664466 0.13628606 0.04228322
-0.032205906 -0.060219746 0.0021742824 -0.050183747 0.073566906 0.059969403 -0.035986062 -0.008164574
-0.061076757 0.07232393 0.10582939 0.056545507 0.13322884 -0.1803595 -0.08424222 -0.048213422
-0.11634365 -0.040126104 0.086453676 -0.028269747 -0.026512379 0.003718673 0.056487374 -0.053307768
0.13228208 0.02338625 0.0015115582 0.09407785 0.0778937 0.00659967 -0.051064495 -0.12226586
0.071983434 -0.0068424214 0.051929954 -0.07248421 -0.023505488 0.0018132551 0.12741278 0.02334339
-0.04316271 -0.10917705 -0.15030177 -0.081123516 0.021289151 -0.035798244 0.007502428 0.09470029
-0.11575085 0.046479102 -0.032848716 -0.102864616 0.04214658 -0.047499623 0.041746505 0.07426139
-0.037127458 0.13329582 -0.19192293 0.14326552 -0.19471563 -0.019663338 0.03493047 -0.053275373
-0.0119465655 0.03225832 -0.0060931114 0.10714492 -0.019347087 -0.049431585 -0.05702434 -0.14882821
-0.071039185 0.07371932 -0.06412702 0.014948401 -0.014816533 0.0023411142 0.06344491 -0.001144177
0.14157124 -0.03299569 0.08444284 -0.03261623 -0.04349286 0.054259337 0.028774876 0.0009005835
0.11678763 -0.13270518 -0.0010886628 -0.015242164 -0.020067146 0.0032463567 0.01195046 -0.017144797
0.056424156 -0.017854124 0.02262687 -0.022242986 0.048088796 0.12704237 -0.07192479 -0.08097919
-0.05607002 0.059204012 0.10185933 0.040496945 -0.011611217 -0.14816639 -0.016291011 0.02628406
-0.06441422 -0.0103585385 0.114243425 0.13293654 -0.08359004 -0.005974313 0.10488386 0.0038192754
0.08303945 -0.034037825 -0.06730333 0.022794845 0.032491274 -0.07031246 0.16748688 0.08312517
0.046303473 0.12052815 0.071058206 -0.07973597 0.15458821 -0.0057785874 0.0022935201 0.011126679
00000000: bd5e e0bd 4041 bbbd 6c2a d1bd b016 e53c
00000010: eb8e c7bc b0aa 593c 3d63 b8bc a3a1 983c
00000020: c14d b8bd 8b5a ddbd df0c fdbc 1bb4 ba3c
00000030: b5cd d9bc 2ca6 213d 46e1 e53d 6b13 f03c
00000040: 227a a1bd ed14 e6bd f6b6 653d b7fc 96bd
00000050: ad4e 393d 65e6 bebc ad9b 07bd 65d3 eabb
00000060: 0c25 18bc 3e90 833d b668 c53d fbdb ffbd
00000070: f743 b13d 5ec5 bebd c323 db3b 7ce0 2abd
00000080: a9e4 843d 29c9 2c3d 0995 a13d 668f c6bc
00000090: ae5f 59bd 9f55 87bd c0ef 7ebd f80d e7bc
000000a0: df31 1cbd cab3 ac3d 17de c03d 57ae 363d
000000b0: b653 95bc d478 2abd 0647 673b 0405 f03d
000000c0: 5ede 923b 65ac 0ebd cb24 22bd 1ecd 2bbd
000000d0: ce03 37bd c414 943c d56a debd b019 63bc
000000e0: 856b 773c 6f03 53ba a6c8 c7bd 006b ecbc
000000f0: 1922 323d 827f 3d3d c009 573d 63ca 623d
00000100: f392 933d e91a 72bc 7f37 a93d ccdd ffbc
00000110: fff9 59bc e9eb 903c d7bf 063c 03bd 41bd
00000120: c0cf 71bd 7e07 d33d 55a9 f53d 5fb6 bcbd
00000130: de06 f43d cfce 5b3b bac8 e63d 9caf 063d
00000140: 9523 80bb 4383 0bbe b85c 063d f6cf d7bd
00000150: 7abd bd3b 4531 3e3c 425d ae3d 4e8b 6abb
00000160: a320 223d c6da 123d d94d 18bd c1e1 253d
00000170: 5a92 09bb e178 79bd 8f12 46bc b3e0 e2bc
00000180: 63fe 55bc b05b 013e 404e dcbd 9bfc 11bc
00000190: 698c 9dbc c75c f1bc 99c9 c4bc 3029 223c
000001a0: d5a2 a33d a4d9 dbbd 6aee a0bc 5108 5a3c
000001b0: 5904 733d 8085 9ebd 85b2 fdbd dc60 9abd
000001c0: 4be7 df3c b1c6 d93d 0e7c 273c 8306 74bd
000001d0: 375a c6bd 94ec 0bbe 938e 0b3e 2b31 2d3d
000001e0: 57ea 03bd fba8 76bd 687e 0e3b 798d 4dbd
000001f0: 3faa 963d 7aa2 753d 1f66 13bd b5c4 05bc
00000200: 9f2b 7abd 921e 943d 14bd d83d 439c 673d
00000210: 246d 083e 29b0 38be 2f87 acbd 707b 45bd
00000220: 9445 eebd 455b 24bd a00e b13d f595 e7bc
00000230: 7d30 d9bc fbb4 733b 4e5f 673d 3f59 5abd
00000240: f474 073e 8594 bf3c 7a1f c63a e3ab c03d
00000250: bb86 9f3d 0b42 d83b 0129 51bd 8666 fabd
00000260: 0d6c 933d 6436 e0bb 81b4 543d 9a72 94bd
00000270: 958e c0bc bfaa ed3a 7f78 023e a33a bf3c
00000280: 62cb 30bd 3898 dfbd b5e8 19be 1624 a6bd
00000290: 9666 ae3c 2ea1 12bd edd6 f53b 3af2 c13d
000002a0: c80e edbd df60 3e3d 608c 06bd afaa d2bd
000002b0: e4a1 2c3d f78e 42bd 62fe 2a3d 5b16 983d
000002c0: f612 18bd b37e 083e 7287 44be 32b4 123e
000002d0: 8963 47be 0215 a1bc 4113 0f3d 4737 5abd
000002e0: 87bb 43bc 4d21 043d b9a8 c7bb cc6e db3d
000002f0: c87d 9ebc c678 4abd 5b92 69bd 6c66 18be
00000300: fe7c 91bd 28fa 963d 0755 83bd 23ea 743c
00000310: 0bc1 72bc 616d 193b 68ef 813d 36f8 95ba
00000320: 0df8 103e 7d26 07bd 5ef0 ac3d 9998 05bd
00000330: 9225 32bd 0a3f 5e3d 4ab9 eb3c 2315 6c3a
00000340: 5a2e ef3d dee3 07be 76b1 8eba 45ba 79bc
00000350: db63 a4bc d4c0 543b ddcb 433c 3f73 8cbc
00000360: 041d 673d d042 92bc fc5b b93c ec36 b6bc
00000370: c2f8 443d 6517 023e 4e4d 93bd 6bd8 a5bd
00000380: ada9 65bd e87f 723d a09b d03d 20e0 253d
00000390: f93c 3ebc eeb8 17be ba74 85bc ab51 d73c
000003a0: 9aeb 83bd dcb6 29bc 75f8 e93d 8420 083e
000003b0: 4131 abbd 2bc4 c3bb 59cd d63d cf4c 7a3b
000003c0: 9610 aa3d 3f6b 0bbd 54d6 89bd 41bc ba3c
000003d0: 9215 053d fbff 8fbd ae81 2b3e 873d aa3d
000003e0: b6a8 3d3d 76d7 f63d f786 913d 9d4c a3bd
000003f0: 5f4c 1e3e 4e5a bdbb e24e 163b ad4c 363c

kernel f4 [32, 1, 5, 5]
0.0039 0.0156 0.0234 0.0156 0.0039 0.0156 0.0625 0.0938
0.0625 0.0156 0.0234 0.0938 0.1406 0.0938 0.0234 0.0156
0.0625 0.0938 0.0625 0.0156 0.0039 0.0156 0.0234 0.0156
0.0039 0.0039 0.0156 0.0234 0.0156 0.0039 0.0156 0.0625
0.0938 0.0625 0.0156 0.0234 0.0938 0.1406 0.0938 0.0234
0.0156 0.0625 0.0938 0.0625 0.0156 0.0039 0.0156 0.0234
0.0156 0.0039 0.0039 0.0156 0.0234 0.0156 0.0039 0.0156
0.0625 0.0938 0.0625 0.0156 0.0234 0.0938 0.1406 0.0938
0.0234 0.0156 0.0625 0.0938 0.0625 0.0156 0.0039 0.0156
0.0234 0.0156 0.0039 0.0039 0.0156 0.0234 0.0156 0.0039
0.0156 0.0625 0.0938 0.0625 0.0156 0.0234 0.0938 0.1406
0.0938 0.0234 0.0156 0.0625 0.0938 0.0625 0.0156 0.0039
0.0156 0.0234 0.0156 0.0039 0.0039 0.0156 0.0234 0.0156
0.0039 0.0156 0.0625 0.0938 0.0625 0.0156 0.0234 0.0938
0.1406 0.0938 0.0234 0.0156 0.0625 0.0938 0.0625 0.0156
0.0039 0.0156 0.0234 0.0156 0.0039 0.0039 0.0156 0.0234
0.0156 0.0039 0.0156 0.0625 0.0938 0.0625 0.0156 0.0234
0.0938 0.1406 0.0938 0.0234 0.0156 0.0625 0.0938 0.0625
0.0156 0.0039 0.0156 0.0234 0.0156 0.0039 0.0039 0.0156
0.0234 0.0156 0.0039 0.0156 0.0625 0.0938 0.0625 0.0156
0.0234 0.0938 0.1406 0.0938 0.0234 0.0156 0.0625 0.0938
0.0625 0.0156 0.0039 0.0156 0.0234 0.0156 0.0039 0.0039
0.0156 0.0234 0.0156 0.0039 0.0156 0.0625 0.0938 0.0625
0.0156 0.0234 0.0938 0.1406 0.0938 0.0234 0.0156 0.0625
0.0938 0.0625 0.0156 0.0039 0.0156 0.0234 0.0156 0.0039
0.0039 0.0156 0.0234 0.0156 0.0039 0.0156 0.0625 0.0938
0.0625 0.0156 0.0234 0.0938 0.1406 0.0938 0.0234 0.0156
0.0625 0.0938 0.0625 0.0156 0.0039 0.0156 0.0234 0.0156
0.0039 0.0039 0.0156 0.0234 0.0156 0.0039 0.0156 0.0625
0.0938 0.0625 0.0156 0.0234 0.0938 0.1406 0.0938 0.0234
0.0156 0.0625 0.0938 0.0625 0.0156 0.0039 0.0156 0.0234
0.0156 0.0039 0.0039 0.0156 0.0234 0.0156 0.0039 0.0156
00000000: 2497 7f3b 2497 7f3c 5bb1 bf3c 2497 7f3c
00000010: 2497 7f3b 2497 7f3c 0000 803d 371a c03d
00000020: 0000 803d 2497 7f3c 5bb1 bf3c 371a c03d
00000030: 72f9 0f3e 371a c03d 5bb1 bf3c 2497 7f3c
00000040: 0000 803d 371a c03d 0000 803d 2497 7f3c
00000050: 2497 7f3b 2497 7f3c 5bb1 bf3c 2497 7f3c
00000060: 2497 7f3b 2497 7f3b 2497 7f3c 5bb1 bf3c
00000070: 2497 7f3c 2497 7f3b 2497 7f3c 0000 803d
00000080: 371a c03d 0000 803d 2497 7f3c 5bb1 bf3c
00000090: 371a c03d 72f9 0f3e 371a c03d 5bb1 bf3c
000000a0: 2497 7f3c 0000 803d 371a c03d 0000 803d
000000b0: 2497 7f3c 2497 7f3b 2497 7f3c 5bb1 bf3c
000000c0: 2497 7f3c 2497 7f3b 2497 7f3b 2497 7f3c
000000d0: 5bb1 bf3c 2497 7f3c 2497 7f3b 2497 7f3c
000000e0: 0000 803d 371a c03d 0000 803d 2497 7f3c
000000f0: 5bb1 bf3c 371a c03d 72f9 0f3e 371a c03d
00000100: 5bb1 bf3c 2497 7f3c 0000 803d 371a c03d
00000110: 0000 803d 2497 7f3c 2497 7f3b 2497 7f3c
00000120: 5bb1 bf3c 2497 7f3c 2497 7f3b 2497 7f3b
00000130: 2497 7f3c 5bb1 bf3c 2497 7f3c 2497 7f3b
00000140: 2497 7f3c 0000 803d 371a c03d 0000 803d
00000150: 2497 7f3c 5bb1 bf3c 371a c03d 72f9 0f3e
00000160: 371a c03d 5bb1 bf3c 2497 7f3c 0000 803d
00000170: 371a c03d 0000 803d 2497 7f3c 2497 7f3b
00000180: 2497 7f3c 5bb1 bf3c 2497 7f3c 2497 7f3b
00000190: 2497 7f3b 2497 7f3c 5bb1 bf3c 2497 7f3c
000001a0: 2497 7f3b 2497 7f3c 0000 803d 371a c03d
000001b0: 0000 803d 2497 7f3c 5bb1 bf3c 371a c03d
000001c0: 72f9 0f3e 371a c03d 5bb1 bf3c 2497 7f3c
000001d0: 0000 803d 371a c03d 0000 803d 2497 7f3c
000001e0: 2497 7f3b 2497 7f3c 5bb1 bf3c 2497 7f3c
000001f0: 2497 7f3b 2497 7f3b 2497 7f3c 5bb1 bf3c
00000200: 2497 7f3c 2497 7f3b 2497 7f3c 0000 803d
00000210: 371a c03d 0000 803d 2497 7f3c 5bb1 bf3c
00000220: 371a c03d 72f9 0f3e 371a c03d 5bb1 bf3c
00000230: 2497 7f3c 0000 803d 371a c03d 0000 803d
00000240: 2497 7f3c 2497 7f3b 2497 7f3c 5bb1 bf3c
00000250: 2497 7f3c 2497 7f3b 2497 7f3b 2497 7f3c
00000260: 5bb1 bf3c 2497 7f3c 2497 7f3b 2497 7f3c
00000270: 0000 803d 371a c03d 0000 803d 2497 7f3c
00000280: 5bb1 bf3c 371a c03d 72f9 0f3e 371a c03d
00000290: 5bb1 bf3c 2497 7f3c 0000 803d 371a c03d
000002a0: 0000 803d 2497 7f3c 2497 7f3b 2497 7f3c
000002b0: 5bb1 bf3c 2497 7f3c 2497 7f3b 2497 7f3b
000002c0: 2497 7f3c 5bb1 bf3c 2497 7f3c 2497 7f3b
000002d0: 2497 7f3c 0000 803d 371a c03d 0000 803d
000002e0: 2497 7f3c 5bb1 bf3c 371a c03d 72f9 0f3e
000002f0: 371a c03d 5bb1 bf3c 2497 7f3c 0000 803d
00000300: 371a c03d 0000 803d 2497 7f3c 2497 7f3b
00000310: 2497 7f3c 5bb1 bf3c 2497 7f3c 2497 7f3b
00000320: 2497 7f3b 2497 7f3c 5bb1 bf3c 2497 7f3c
00000330: 2497 7f3b 2497 7f3c 0000 803d 371a c03d
00000340: 0000 803d 2497 7f3c 5bb1 bf3c 371a c03d
00000350: 72f9 0f3e 371a c03d 5bb1 bf3c 2497 7f3c
00000360: 0000 803d 371a c03d 0000 803d 2497 7f3c
00000370: 2497 7f3b 2497 7f3c 5bb1 bf3c 2497 7f3c
00000380: 2497 7f3b 2497 7f3b 2497 7f3c 5bb1 bf3c
00000390: 2497 7f3c 2497 7f3b 2497 7f3c 0000 803d
000003a0: 371a c03d 0000 803d 2497 7f3c 5bb1 bf3c
000003b0: 371a c03d 72f9 0f3e 371a c03d 5bb1 bf3c
000003c0: 2497 7f3c 0000 803d 371a c03d 0000 803d
000003d0: 2497 7f3c 2497 7f3b 2497 7f3c 5bb1 bf3c
000003e0: 2497 7f3c 2497 7f3b 2497 7f3b 2497 7f3c
000003f0: 5bb1 bf3c 2497 7f3c 2497 7f3b 2497 7f3c

weight f4 [32, 32, 3, 3]
0.052482143 0.04966672 0.0060207224 -0.00791315 0.03694506 0.0433819 0.04575436 -0.034845795
0.015925406 -0.011564297 0.03875888 -0.0548594 -0.015089301 -0.05156683 0.0027494838 0.031765748
-0.009737831 -0.014272251 -0.016672375 0.048487805 0.017486727 -0.020220159 0.017622324 0.03479605
0.030043697 -0.0077396645 -0.003625691 0.038245462 0.00413081 0.054281835 -0.053586144 0.024070362
-0.031730775 0.022283664 -0.0025711835 -0.028294222 -0.058022853 -0.021959497 -0.014637809 -0.0014299571
-0.012345789 0.044207104 0.054772165 0.03523136 0.005877724 0.03887864 0.049155593 0.04103443
0.010976015 -0.057183105 -0.05611347 0.037181724 -0.038407728 0.055115573 -0.024290694 0.0049959263
-0.009849699 0.053150572 0.016996838 -0.021833947 0.01786958 -0.039172966 -0.008682253 0.041364856
0.04510163 0.036514055 -0.043965872 -0.04996984 -0.021430537 -0.048821986 -0.017126346 0.0075751413
-0.02538395 -0.021354564 -0.022044135 0.03799926 -0.038660675 0.0061929207 0.05200252 -0.024561297
-0.022755273 -0.015791817 0.037466407 -0.020333633 -0.008553588 0.026534507 0.012722709 0.018444255
0.013925839 0.023984218 -0.020444317 0.049833946 0.014881209 0.02100448 -0.049912985 -0.039898574
-0.013346475 -0.022354074 0.055345662 -0.03707204 -0.049099077 0.053026985 0.03320949 -0.032788515
0.008911202 -0.010760736 -0.0017483834 0.026826361 -0.037762508 -0.05053827 0.007524814 -0.03842146
0.020759229 -0.04903236 0.008070498 0.032922205 0.03754309 0.03811844 0.012696601 0.059078835
-0.0143820625 0.013130159 0.017121496 0.054739844 0.055359 0.0011859128 -0.060914677 0.05008577
-0.020487025 -0.044939082 0.024037663 -0.029121637 0.013189185 0.051873874 -0.012801489 0.03049716
0.05464651 0.042760815 0.036893416 0.027399737 -0.01488688 -0.029685603 -0.05868102 0.022609156
0.014299527 -0.045066316 -0.011596954 -0.05048746 -0.030170888 -0.024004487 -0.033065096 0.051319726
0.010349399 -0.021858713 -0.026214434 0.0066787032 0.023215244 -0.038279634 0.0002407656 0.04621244
-0.05005683 0.006012941 -0.0054425555 -0.026765957 -0.04346112 -0.03150129 0.02432489 -0.013650731
0.055729944 -0.024756014 0.015060632 0.013536699 0.061313733 -0.045021806 -0.05766268 -0.0040064864
-0.0039570993 0.045820847 -0.038706698 0.007256298 0.038499802 -0.006808982 0.04942612 0.033100028
-0.035429083 -0.029405503 -0.002390033 0.047361203 0.022622725 -0.0020585044 0.04100391 -0.020141114
0.034704253 -0.019602442 -0.027380293 0.027884569 -0.012708764 0.0033515447 -0.052566 0.00058401056
-0.009134147 0.030434575 0.03211464 -0.04931141 0.036629453 -0.021963421 -0.036397424 -0.009259658
-0.03445252 -0.05861938 0.044276588 -0.03053345 -0.012532067 -0.02608693 -0.0070328754 0.03830923
0.033706516 0.013404258 0.010241027 -0.037505 -0.059010763 -0.02495076 0.019385172 0.016267411
-0.054984912 -0.015752971 0.014325329 0.029703123 -0.027982082 0.04076992 -0.015746232 0.028861
0.0079196235 0.038398396 0.03952474 0.055406574 -0.001363997 -0.020639354 0.048291836 -0.0026255772
0.007309475 0.03454698 0.004164197 -0.029514033 -0.026593938 -0.05228334 0.039930675 -0.0027745496
-0.049274594 -0.017127242 0.05896787 -0.02138289 -0.011531587 0.022990135 0.0055303657 0.020219972
00000000: 84f7 563d 556f 4b3d 7b49 c53b 28a6 01bc
00000010: b453 173d 38b1 313d ec68 3b3d 77ba 0ebd
00000020: ff75 823c 2d78 3dbc a2c1 1e3d 40b4 60bd
00000030: 1e39 77bc be37 53bd af30 343b cd1c 023d
00000040: 6c8b 1fbc 29d6 69bc 8194 88bc 269b 463d
00000050: 5340 8f3c bfa4 a5bc b15c 903c 4e86 0e3d
00000060: 331e f63c 039d fdbb 009d 6dbb 46a7 1c3d
00000070: bf5b 873b a156 5e3d 257d 5bbd 352f c53c
00000080: 21f8 01bd 3b8c b63c 4d81 28bb 49c9 e7bc
00000090: 5fa9 6dbd 67e4 b3bc 6cd3 6fbc 666d bbba
000000a0: fe45 4abc 8212 353d c758 603d c24e 103d
000000b0: ec99 c03b 353f 1f3d 6057 493d b813 283d
000000c0: bed4 333c d538 6abd 3dd7 65bd dd4b 183d
000000d0: 6c51 1dbd dec0 613d 47fd c6bc deb4 a33b
000000e0: a260 21bc 6ab4 593d f43c 8b3c 1bdd b2bc
000000f0: 3a63 923c d573 20bd 0240 0ebc 326e 293d
00000100: 7dbc 383d c38f 153d 8f15 34bd 2dad 4cbd
00000110: 188f afbc 90f9 47bd 8d4c 8cbc e438 f83b
00000120: 00f2 cfbc c4ef aebc e795 b4bc 1da5 1b3d
00000130: a85a 1ebd fced ca3b 9800 553d c634 c9bc
00000140: 4469 babc d75d 81bc 6076 193d b892 a6bc
00000150: 5924 0cbc e55e d93c e972 503c 6818 973c
00000160: 3429 643c 8d7a c43c d77a a7bc ae1e 4c3d
00000170: 50d0 733c 9611 ac3c 8f71 4cbd b06c 23bd
00000180: 2cab 5abc e41f b7bc 22b2 623d dad8 17bd
00000190: 1d1c 49bd d332 593d ad06 083d 404d 06bd
000001a0: 4a00 123c cc4d 30bc 032a e5ba f5c2 db3c
000001b0: dcac 1abd 3801 4fbd b792 f63b d25f 1dbd
000001c0: 420f aa3c 28d6 48bd 1f3a 043c 6fd9 063d
000001d0: c8c6 193d 1522 1c3d 6805 503c a6fc 713d
000001e0: bea2 6bbc e11f 573c 6142 8c3c e336 603d
000001f0: 1ec0 623d a170 9b3a ab81 79bd bd26 4d3d
00000200: 68d4 a7bc 0b12 38bd a2ea c43c 8090 eebc
00000210: 7417 583c b379 543d 56bd 51bc 2ed5 f93c
00000220: 05d5 5f3d f725 2f3d 8d1d 173d 6a75 e03c
00000230: 1ae8 73bc 392f f3bc 825b 70bd d636 b93c
00000240: 9048 6a3c 7597 38bd 2701 3ebc f0cb 4ebd
00000250: f028 f7bc 0fa5 c4bc 446f 07bd a234 523d
00000260: 8790 293c 0b11 b3bc a7bf d6bc 06d9 da3b
00000270: e52d be3c 1bcb 1cbd 0676 7c39 4149 3d3d
00000280: 6408 4dbd 3408 c53b 7757 b2bb 4844 dbbc
00000290: 4a04 32bd 7f07 01bd fe44 c73c 51a7 5fbc
000002a0: 1545 643d 20cd cabc dec0 763c 08c9 5d3c
000002b0: 1c24 7b3d c968 38bd b42f 6cbd d848 83bb
000002c0: 8eaa 81bb a4ae 3b3d ea8a 1ebd 3dc6 ed3b
000002d0: f8b1 1d3d e21d dfbb 0b73 4a3d e593 073d
000002e0: 161e 11bd cfe3 f0bc 1aa2 1cbb d2fd 413d
000002f0: 4b53 b93c f9e7 06bb b7f3 273d fafe a4bc
00000300: 0c26 0e3d 4d95 a0bc a34c e0bc 2e6e e43c
00000310: 6b38 50bc 97a5 5b3b 724f 57bd 4918 193a
00000320: 64a7 15bc ee51 f93c a48a 033d c3fa 49bd
00000330: c408 163d a2ec b3bc 7715 15bd d2b5 17bc
00000340: 161e 0dbd e01a 70bd 5e5b 353d 4921 fabc
00000350: 4c53 4dbc 42b4 d5bc 0974 e6bb 24ea 1c3d
00000360: d80f 0a3d 889d 5b3c fbc9 273c d89e 19bd
00000370: 45b5 71bd 8965 ccbc a7cd 9e3c 3c43 853c
00000380: dc37 61bd 600c 81bc c9b4 6a3c f753 f33c
00000390: ae3a e5bc 5cfe 263d 3efe 80bc e76d ec3c
000003a0: 4fc1 013c a347 1d3d b2e4 213d 01f2 623d
000003b0: 25c8 b2ba dd13 a9bc a9cd 453d e011 2cbb
000003c0: 5284 ef3b 2281 0d3d d173 883b 6ac7 f1bc
000003d0: 88db d9bc 0e27 56bd 598e 233d 38d5 35bb
000003e0: 28d4 49bd 6e4e 8cbc 4b88 713d 2c2b afbc
000003f0: fbee 3cbc cf55 bc3c 1238 b53b 5ba4 a53c

weight f4 [32]
0.9938223 1.0020325 1.0045859 0.99884844 0.99873465 0.99872106 1.0019385 1.0020746
1.0073674 0.99795085 1.001288 1.00135 0.999306 0.9976832 0.99908817 1.0022154
1.0009025 0.9921071 0.9991962 0.99697775 1.0019943 1.0019969 0.9991394 0.9968013
1.002876 0.9952979 0.99913746 0.9957725 1.0021417 0.99959725 1.0070443 0.9996716
00000000: 236b 7e3f 9a42 803f 4596 803f 88b4 7f3f
00000010: 13ad 7f3f 2fac 7f3f 853f 803f fb43 803f
00000020: 6af1 803f b579 7f3f 352a 803f 3d2c 803f
00000030: 85d2 7f3f 2b68 7f3f 3ec4 7f3f 9848 803f
00000040: 931d 803f bbfa 7d3f 52cb 7f3f ef39 7f3f
00000050: 5941 803f 6f41 803f 9ac7 7f3f 5f2e 7f3f
00000060: 3e5e 803f d8cb 7e3f 79c7 7f3f f2ea 7e3f
00000070: 2e46 803f 9be5 7f3f d4e6 803f 7aea 7f3f

bias f4 [32]
-0.002920014 -0.0043786634 -0.0034731051 -0.0026025951 -0.0023588696 0.0011462511 -3.6483096e-05 0.004196949
0.001695718 -0.00065555173 0.0037518283 -0.00023981066 -0.00065011915 -0.0029052354 -0.0042695864 0.0008008806
-0.0016767373 -0.0050303107 -0.0006779001 -0.0033751356 0.0013283347 0.0063444832 -0.00022543373 -0.004690842
0.0012695387 -0.0012193193 -0.003710185 -0.00324226 -0.0014392723 -0.0026414718 0.0021414827 -0.0015232887
00000000: b55d 3fbb e47a 8fbb 099d 63bb 4d90 2abb
00000010: 4497 1abb ce3d 963a 6d05 19b8 8f86 893b
00000020: db42 de3a 55d9 2bba 3ce1 753b af75 7bb9
00000030: c26c 2aba c365 3ebb e3e7 8bbb 30f2 513a
00000040: f8c5 dbba 4ed5 a4bb 1bb5 31ba 6131 5dbb
00000050: 841b ae3a 62e5 cf3b 6862 6cb9 a2b5 99bb
00000060: a666 a63a 91d1 9fba 9326 73bb 197c 54bb
00000070: f7a5 bcba 8b1c 2dbb 1e58 0c3b 16a9 c7ba
