models/model_gamma_0.9_acl_axial_val_auc_0.8698_train_auc_0.8795_epoch_27.pth (torch, 886469 bytes, 32 tensors)

weight f4 [16, 1, 7, 7]
-0.33010188 -0.023701554 0.15258896 0.17511053 -0.022843966 -0.15279311 0.25342217 -0.12077928
0.37849957 -0.06606519 0.451718 -0.13173197 -0.11189471 0.010122665 -0.16749294 -0.0017339832
-0.07814746 -0.04448021 0.13293697 -0.31928587 0.0046250303 0.11490838 -0.11507507 0.18033914
-0.005870858 -0.36027408 -0.1638135 -0.01427181 0.08021844 -0.14473142 0.19107011 0.23619391
-0.2897668 -0.040641677 -0.06749456 -0.07300325 -0.14431699 0.35700366 -0.17138667 -0.11699038
-0.48754445 0.16210148 0.09328168 0.028708657 -0.114317276 -0.23728274 0.061603356 0.38813725
0.58399534 0.055684917 -0.24954547 0.39210305 -0.20106806 0.04915992 0.09033455 -0.020872204
-0.12456571 -0.15637198 0.2244759 -0.2774647 -0.12728302 -0.19078851 0.013200038 0.36257192
-0.15103069 0.20512654 0.055470433 -0.07817373 -0.061107047 -0.09716377 0.27322766 0.19219767
-0.19373567 -0.48997355 -0.22744444 -0.46353683 -0.27204895 0.048345823 -0.046037104 -0.060082342
0.15374002 -0.28834724 -0.121839024 -0.03246029 -0.30819085 0.092501536 0.051718872 -0.041048504
0.08182823 -0.06631371 -0.07727575 0.120981075 -0.05918123 -0.022009749 -0.15883501 0.12052105
0.26395044 -0.040678877 0.17730305 0.1455396 0.028315721 -0.05680956 0.0066528656 0.17662394
0.12317926 -0.36238495 0.21402445 0.057123076 0.053480122 -0.023506185 -0.23597218 -0.06235126
0.08295671 -0.058757443 -0.2527034 0.19492185 0.1474818 0.047151033 0.098146126 -0.39742458
0.04737155 0.39806482 0.118926995 0.19244221 0.022154216 -0.23632313 0.20751894 0.0993894
-0.18364201 0.11020398 -0.11650855 0.20213158 -0.072237484 0.07650964 -0.2127528 0.09336654
-0.06449421 0.030036667 -0.23898631 -0.16376464 -0.070210434 0.032324627 -0.23302075 -0.019225502
0.07189422 -0.104306266 -0.02980386 -0.025007302 -0.2309523 0.30784005 0.058661465 0.29473922
0.0778846 -0.34639075 -0.33473703 0.05024147 -0.12289053 -0.04897292 0.21565677 -0.022085417
0.06328849 0.016377103 -0.13189597 -0.019966053 0.078058645 -0.06935384 -0.0030080266 -0.29353034
-0.11235151 -0.017318502 -0.01863832 -0.019251158 0.34483033 0.16530201 -0.16783392 0.75509214
-0.19420154 -0.3056828 -0.14522237 -0.21708788 0.23729241 -0.08996846 -0.16779618 -0.13357729
-0.13246557 -0.089817196 -0.18479098 0.20166256 -0.035037074 -0.08186328 -0.059171516 -0.18705375
-0.018011129 0.13038647 0.034671932 -0.03371652 0.37918237 -0.18396084 0.39012477 -0.13440761
-0.22271083 -0.04668391 0.16189128 0.25795907 -0.021909902 -0.37132558 0.1259371 -0.21594545
-0.20766602 -0.18179484 -0.3414154 0.009843123 -0.025269834 -0.11093617 0.30580023 0.23372388
0.34369725 0.17856772 0.15249048 0.47946233 -0.04106535 0.09181247 0.26821727 -0.20508558
-0.034384996 -0.36416444 0.11838199 0.18357617 0.14160937 -0.098013595 0.30470258 -0.47346303
0.0073073744 -0.32872972 -0.081599966 -0.39312178 0.12567328 -0.16696465 0.034216672 -0.24283299
0.16376133 -0.059522267 0.17993319 0.19639389 0.26514867 0.21377772 0.10889859 -0.096362345
-0.32191548 0.07244941 -0.13922603 0.23727156 0.1982393 -0.09667708 -0.37450132 -0.08034593
00000000: 1d03 a9be c329 c2bc 4840 1c3e 2d50 333e
00000010: 4523 bbbc cc75 1cbe 8dc0 813e 215b f7bd
00000020: b2ca c13e 304d 87bd 9547 e73e bfe4 06be
00000030: 0e29 e5bd 89d9 253c 4583 2bbe d246 e3ba
00000040: c70b a0bd e130 36bd a120 083e 7079 a3be
00000050: 918d 973b 1655 eb3d 7aac ebbd d3aa 383e
00000060: 5460 c0bb d875 b8be babe 27be 4fd4 69bc
00000070: 9149 a43d 7934 14be e2a7 433e d1dc 713e
00000080: 505c 94be e377 26bd 963a 8abd ba82 95bd
00000090: d5c7 13be 2fc9 b63e fd7f 2fbe a798 efbd
000000a0: 6d9f f9be eefd 253e 770a bf3d 6b2e eb3c
000000b0: 2d1f eabd 3ffa 72be cd53 7c3d edb9 c63e
000000c0: b880 153f de15 643d d988 7fbe bbc1 c83e
000000d0: c9e4 4dbe ea5b 493d 5201 b93d 2ffc aabc
000000e0: 4f1c ffbd fa1f 20be 03dd 653e da0f 8ebe
000000f0: 7b56 02be 105e 43be f944 583c 07a3 b93e
00000100: caa7 1abe b10c 523e f734 633d 8c19 a0bd
00000110: 624b 7abd ccfd c6bd 7fe4 8b3e 77cf 443e
00000120: a562 46be d0dd fabe 32e7 68be b354 edbe
00000130: 004a 8bbe 4506 463d 6791 3cbd e718 76bd
00000140: 066e 1d3e 40a2 93be bd86 f9bd 15f5 04bd
00000150: 31cb 9dbe 7271 bd3d 2bd7 533d 7a22 28bd
00000160: 8f95 a73d 7bcf 87bd c042 9ebd edc4 f73d
00000170: 0468 72bd ca4d b4bc a5a5 22be bed3 f63d
00000180: 8324 873e e59e 26bd ee8e 353e 5508 153e
00000190: 5ff6 e73c 24b1 68bd 4800 da3b e8dc 343e
000001a0: 6845 fc3d 858a b9be 3a29 5b3e e3f9 693d
000001b0: f90d 5b3d 0b90 c0bc b1a2 71be 0964 7fbd
000001c0: 35e5 a93d a5ab 70bd 5762 81be 9899 473e
000001d0: 7805 173e 7121 413d d600 c93d 3c7b cbbe
000001e0: ac08 423d 27cf cb3e ff8f f33d 920f 453e
000001f0: c27c b53c b1fe 71be d87f 543e ab8c cb3d
00000200: a70c 3cbe a0b2 e13d 099c eebd 95fb 4e3e
00000210: 3ff1 93bd 16b1 9c3d dfdb 59be f536 bf3d
00000220: 8a15 84bd 750f f63c d4b8 74be ebb1 27be
00000230: 7dca 8fbd d466 043d fe9c 6ebe cd7e 9dbc
00000240: 473d 933d 869e d5bd 3927 f4bc 1ddc ccbc
00000250: c27e 6cbe 369d 9d3e 0147 703d 0fe8 963e
00000260: f681 9f3d 215a b1be a762 abbe 00ca 4d3d
00000270: 08ae fbbd d497 48bd 21d5 5c3e 7aec b4bc
00000280: 659d 813d 4629 863c bd0f 07be d98f a3bc
00000290: 36dd 9f3d 6309 8ebd 5022 45bb 9c49 96be
000002a0: 8c18 e6bd 88df 8dbc 64af 98bc 9bb4 9dbc
000002b0: 9a8d b03e ee44 293e a8dc 2bbe b84d 413f
000002c0: c5dc 46be 7582 9cbe 2cb5 14be 494c 5ebe
000002d0: c8fc 723e 6241 b8bd c3d2 2bbe 7cc8 08be
000002e0: 0ea5 07be 14f2 b7bd d939 3dbe a180 4e3e
000002f0: 0983 0fbd efa7 a7bd d55d 72bd 058b 3fbe
00000300: 138c 93bc 0884 053e 2804 0e3d 551a 0abd
00000310: 3124 c23e 3b60 3cbe 6fbe c73e 26a2 09be
00000320: 4f0e 64be a137 3fbd d4c6 253e 3613 843e
00000330: 657c b3bc 631e bebe a8f5 003e ce20 5dbe
00000340: 67a6 54be 6d28 3abe 00ce aebe 0d45 213c
00000350: af02 cfbc 8132 e3bd d991 9c3e 5055 6f3e
00000360: 16f9 af3e 75da 363e 7726 1c3e 167c f53e
00000370: 2434 28bd 2d08 bc3d c653 893e f401 52be
00000380: 48d7 0cbd c373 babe 4272 f23d 64fb 3b3e
00000390: 0c02 113e 5abb c8bd fa01 9c3e bf69 f2be
000003a0: b372 ef3b 434f a8be e21d a7bd 4247 c9be
000003b0: 7fb0 003e c8f8 2abe c826 0c3d 36a9 78be
000003c0: 0db1 273e 9fcd 73bd 6840 383e 7b1b 493e
000003d0: 91c1 873e 8ce8 5a3e 3906 df3d 9f59 c5bd
000003e0: 1bd2 a4be 5b60 943d 4591 0ebe 51f7 723e
000003f0: 3eff 4a3e a2fe c5bd a3be bfbe 688c a4bd

kernel f4 [16, 1, 5, 5]
0.0039 0.0156 0.0234 0.0156 0.0039 0.0156 0.0625 0.0938
0.0625 0.0156 0.0234 0.0938 0.1406 0.0938 0.0234 0.0156
0.0625 0.0938 0.0625 0.0156 0.0039 0.0156 0.0234 0.0156
0.0039 0.0039 0.0156 0.0234 0.0156 0.0039 0.0156 0.0625
0.0938 0.0625 0.0156 0.0234 0.0938 0.1406 0.0938 0.0234
0.0156 0.0625 0.0938 0.0625 0.0156 0.0039 0.0156 0.0234
0.0156 0.0039 0.0039 0.0156 0.0234 0.0156 0.0039 0.0156
0.0625 0.0938 0.0625 0.0156 0.0234 0.0938 0.1406 0.0938
0.0234 0.0156 0.0625 0.0938 0.0625 0.0156 0.0039 0.0156
0.0234 0.0156 0.0039 0.0039 0.0156 0.0234 0.0156 0.0039
0.0156 0.0625 0.0938 0.0625 0.0156 0.0234 0.0938 0.1406
0.0938 0.0234 0.0156 0.0625 0.0938 0.0625 0.0156 0.0039
0.0156 0.0234 0.0156 0.0039 0.0039 0.0156 0.0234 0.0156
0.0039 0.0156 0.0625 0.0938 0.0625 0.0156 0.0234 0.0938
0.1406 0.0938 0.0234 0.0156 0.0625 0.0938 0.0625 0.0156
0.0039 0.0156 0.0234 0.0156 0.0039 0.0039 0.0156 0.0234
0.0156 0.0039 0.0156 0.0625 0.0938 0.0625 0.0156 0.0234
0.0938 0.1406 0.0938 0.0234 0.0156 0.0625 0.0938 0.0625
0.0156 0.0039 0.0156 0.0234 0.0156 0.0039 0.0039 0.0156
0.0234 0.0156 0.0039 0.0156 0.0625 0.0938 0.0625 0.0156
0.0234 0.0938 0.1406 0.0938 0.0234 0.0156 0.0625 0.0938
0.0625 0.0156 0.0039 0.0156 0.0234 0.0156 0.0039 0.0039
0.0156 0.0234 0.0156 0.0039 0.0156 0.0625 0.0938 0.0625
0.0156 0.0234 0.0938 0.1406 0.0938 0.0234 0.0156 0.0625
0.0938 0.0625 0.0156 0.0039 0.0156 0.0234 0.0156 0.0039
0.0039 0.0156 0.0234 0.0156 0.0039 0.0156 0.0625 0.0938
0.0625 0.0156 0.0234 0.0938 0.1406 0.0938 0.0234 0.0156
0.0625 0.0938 0.0625 0.0156 0.0039 0.0156 0.0234 0.0156
0.0039 0.0039 0.0156 0.0234 0.0156 0.0039 0.0156 0.0625
0.0938 0.0625 0.0156 0.0234 0.0938 0.1406 0.0938 0.0234
0.0156 0.0625 0.0938 0.0625 0.0156 0.0039 0.0156 0.0234
0.0156 0.0039 0.0039 0.0156 0.0234 0.0156 0.0039 0.0156
00000000: 2497 7f3b 2497 7f3c 5bb1 bf3c 2497 7f3c
00000010: 2497 7f3b 2497 7f3c 0000 803d 371a c03d
00000020: 0000 803d 2497 7f3c 5bb1 bf3c 371a c03d
00000030: 72f9 0f3e 371a c03d 5bb1 bf3c 2497 7f3c
00000040: 0000 803d 371a c03d 0000 803d 2497 7f3c
00000050: 2497 7f3b 2497 7f3c 5bb1 bf3c 2497 7f3c
00000060: 2497 7f3b 2497 7f3b 2497 7f3c 5bb1 bf3c
00000070: 2497 7f3c 2497 7f3b 2497 7f3c 0000 803d
00000080: 371a c03d 0000 803d 2497 7f3c 5bb1 bf3c
00000090: 371a c03d 72f9 0f3e 371a c03d 5bb1 bf3c
000000a0: 2497 7f3c 0000 803d 371a c03d 0000 803d
000000b0: 2497 7f3c 2497 7f3b 2497 7f3c 5bb1 bf3c
000000c0: 2497 7f3c 2497 7f3b 2497 7f3b 2497 7f3c
000000d0: 5bb1 bf3c 2497 7f3c 2497 7f3b 2497 7f3c
000000e0: 0000 803d 371a c03d 0000 803d 2497 7f3c
000000f0: 5bb1 bf3c 371a c03d 72f9 0f3e 371a c03d
00000100: 5bb1 bf3c 2497 7f3c 0000 803d 371a c03d
00000110: 0000 803d 2497 7f3c 2497 7f3b 2497 7f3c
00000120: 5bb1 bf3c 2497 7f3c 2497 7f3b 2497 7f3b
00000130: 2497 7f3c 5bb1 bf3c 2497 7f3c 2497 7f3b
00000140: 2497 7f3c 0000 803d 371a c03d 0000 803d
00000150: 2497 7f3c 5bb1 bf3c 371a c03d 72f9 0f3e
00000160: 371a c03d 5bb1 bf3c 2497 7f3c 0000 803d
00000170: 371a c03d 0000 803d 2497 7f3c 2497 7f3b
00000180: 2497 7f3c 5bb1 bf3c 2497 7f3c 2497 7f3b
00000190: 2497 7f3b 2497 7f3c 5bb1 bf3c 2497 7f3c
000001a0: 2497 7f3b 2497 7f3c 0000 803d 371a c03d
000001b0: 0000 803d 2497 7f3c 5bb1 bf3c 371a c03d
000001c0: 72f9 0f3e 371a c03d 5bb1 bf3c 2497 7f3c
000001d0: 0000 803d 371a c03d 0000 803d 2497 7f3c
000001e0: 2497 7f3b 2497 7f3c 5bb1 bf3c 2497 7f3c
000001f0: 2497 7f3b 2497 7f3b 2497 7f3c 5bb1 bf3c
00000200: 2497 7f3c 2497 7f3b 2497 7f3c 0000 803d
00000210: 371a c03d 0000 803d 2497 7f3c 5bb1 bf3c
00000220: 371a c03d 72f9 0f3e 371a c03d 5bb1 bf3c
00000230: 2497 7f3c 0000 803d 371a c03d 0000 803d
00000240: 2497 7f3c 2497 7f3b 2497 7f3c 5bb1 bf3c
00000250: 2497 7f3c 2497 7f3b 2497 7f3b 2497 7f3c
00000260: 5bb1 bf3c 2497 7f3c 2497 7f3b 2497 7f3c
00000270: 0000 803d 371a c03d 0000 803d 2497 7f3c
00000280: 5bb1 bf3c 371a c03d 72f9 0f3e 371a c03d
00000290: 5bb1 bf3c 2497 7f3c 0000 803d 371a c03d
000002a0: 0000 803d 2497 7f3c 2497 7f3b 2497 7f3c
000002b0: 5bb1 bf3c 2497 7f3c 2497 7f3b 2497 7f3b
000002c0: 2497 7f3c 5bb1 bf3c 2497 7f3c 2497 7f3b
000002d0: 2497 7f3c 0000 803d 371a c03d 0000 803d
000002e0: 2497 7f3c 5bb1 bf3c 371a c03d 72f9 0f3e
000002f0: 371a c03d 5bb1 bf3c 2497 7f3c 0000 803d
00000300: 371a c03d 0000 803d 2497 7f3c 2497 7f3b
00000310: 2497 7f3c 5bb1 bf3c 2497 7f3c 2497 7f3b
00000320: 2497 7f3b 2497 7f3c 5bb1 bf3c 2497 7f3c
00000330: 2497 7f3b 2497 7f3c 0000 803d 371a c03d
00000340: 0000 803d 2497 7f3c 5bb1 bf3c 371a c03d
00000350: 72f9 0f3e 371a c03d 5bb1 bf3c 2497 7f3c
00000360: 0000 803d 371a c03d 0000 803d 2497 7f3c
00000370: 2497 7f3b 2497 7f3c 5bb1 bf3c 2497 7f3c
00000380: 2497 7f3b 2497 7f3b 2497 7f3c 5bb1 bf3c
00000390: 2497 7f3c 2497 7f3b 2497 7f3c 0000 803d
000003a0: 371a c03d 0000 803d 2497 7f3c 5bb1 bf3c
000003b0: 371a c03d 72f9 0f3e 371a c03d 5bb1 bf3c
000003c0: 2497 7f3c 0000 803d 371a c03d 0000 803d
000003d0: 2497 7f3c 2497 7f3b 2497 7f3c 5bb1 bf3c
000003e0: 2497 7f3c 2497 7f3b 2497 7f3b 2497 7f3c
000003f0: 5bb1 bf3c 2497 7f3c 2497 7f3b 2497 7f3c

weight f4 [16]
0.9981611 0.9995035 1.002295 0.9975329 0.9921604 1.0014716 0.99702144 0.9974589
0.9957454 1.0005932 0.9964634 1.0010381 0.993124 0.9987176 0.9971294 1.0006131
00000000: 7c87 7f3f 76df 7f3f 344b 803f 515e 7f3f
00000010: 39fe 7d3f 3930 803f cc3c 7f3f 7759 7f3f
00000020: 2ce9 7e3f 7013 803f 3a18 7f3f 0422 803f
00000030: 603d 7e3f f5ab 7f3f df43 7f3f 1714 803f

bias f4 [16]
-0.010575843 -0.0043091984 -0.0042430903 0.0010477351 -0.008770001 -0.0018320236 -0.005201675 -0.0043088137
-0.0018849886 -0.0015154198 -0.0061437567 0.002349395 -0.0042977543 -0.0029769517 0.00143173 -0.0069750384
00000000: 4d46 2dbc 2d34 8dbb 9f09 8bbb 2854 893a
00000010: 0db0 0fbc 8320 f0ba d072 aabb f330 8dbb
00000020: b911 f7ba 0da1 c6ba 9151 c9bb 4ff8 193b
00000030: 2dd4 8cbb f618 43bb e3a8 bb3a dd8e e4bb

weight f4 [16, 16, 5, 5]
0.045735877 0.021971732 -0.00080863043 -0.035309684 0.03167837 0.00088787655 -4.4518547e-05 0.016854696
0.024163939 0.037586775 0.05250269 0.009073301 0.029332811 -0.019766584 0.04965204 -0.011858187
0.04547525 0.025069633 0.050132282 0.020980584 -0.0035630083 -0.017158365 -0.008908332 0.010329774
0.019068785 -0.015864918 0.015102439 0.035908926 -0.019696442 -0.010638868 -0.03090353 0.026442114
0.031229613 -0.014692298 -0.0032801912 0.038247768 0.03620601 0.037592426 0.044976473 0.040342085
-0.04909032 -0.024771279 0.02048184 0.04926724 -0.039401874 -0.01870997 -0.04702278 0.010762931
-0.024541968 0.0076125744 0.030582134 0.014944339 -0.014130273 0.04017371 0.043514315 0.023696965
0.047289446 0.024667231 0.024611397 -0.029162629 0.043075938 -0.004165401 0.03225917 -0.0042924676
0.011498248 0.03264117 0.014326473 0.012941127 0.0011058508 0.021812802 -0.033068378 0.014309879
-0.030204102 -0.021918336 0.018844381 0.0076355 0.033792824 0.022543252 0.0369496 0.015761338
0.034045156 0.03904804 -0.021447347 0.041771036 0.049308684 -0.026709652 0.047001943 0.0046078083
-0.0048028305 0.0384584 -0.021023877 -0.01413245 0.044413913 0.020617884 -0.04198239 0.034780126
-0.034198083 0.0014538324 0.05307401 -0.04012056 -0.017686138 0.025340393 -0.03349711 0.02655417
-0.049625043 -0.0070250304 -0.042768423 0.024173731 -0.0037475065 -0.043530118 0.035277344 0.017803382
-0.038145855 0.025575172 -0.04725418 -0.0047822404 0.03773141 0.02619027 -0.044300962 0.007336284
-0.039924625 0.038513094 0.025922332 0.03887399 -0.03632531 0.042060293 0.0068165394 -0.038655315
-0.0039648274 -0.014452626 -0.006197274 0.036667805 -0.01581266 0.054493237 -0.0071360897 0.009055849
0.044439994 0.016986208 0.026574751 0.010201438 0.04068365 -0.02714065 0.019344134 -0.012864811
-0.012252157 0.048199493 0.031426992 0.043641597 0.049329422 0.04508603 -0.03976467 0.02562765
-0.020798923 -0.04740298 0.03980111 0.013967404 -0.031581655 0.034619685 0.01346991 0.04627866
-0.028164072 0.02822224 0.012065056 0.013197813 -0.018973637 -0.0038687908 0.00053029903 -0.0020326418
0.0067499494 -0.050133914 0.046057664 0.026700027 0.0027904857 -0.022057094 0.023548469 -0.0019993086
-0.03258702 0.0388233 -0.033660814 0.04876612 0.02672914 -0.04171288 -0.028048871 0.010378289
-0.037886605 -0.021051917 -0.031183887 0.012582204 0.022475595 0.00029660418 -0.04524644 -0.04110271
-0.042976443 0.0007528712 -0.0072899447 -0.038373433 -0.02867398 0.040256355 0.032534998 -0.021498043
-0.02436527 0.022261795 -0.03012607 -0.0003346098 0.012792778 -0.031836912 -0.046322163 0.013142597
-0.0040083546 0.010686153 -0.0061062067 -0.013370704 0.01562528 0.022694455 0.041642915 0.048810743
0.031287868 0.011116238 -0.029601488 -0.037516274 -0.045284588 0.0067694117 0.0064448793 -0.013508024
0.001983252 0.042642448 -0.022382345 -0.018308831 0.020445999 0.050285883 -0.0015369083 -0.0055392794
-0.01462766 0.050177746 0.02504469 0.039697383 -0.0020174414 -0.007766214 -0.011291447 0.0033033164
-0.04208236 0.042893924 0.005987327 0.011465782 -0.031295374 0.03718837 0.019869596 -0.0069593834
-0.006792198 0.016303198 0.043235704 0.015762556 0.03987231 -0.04872636 -0.02860799 0.0025478948
00000000: 8b55 3b3d 10fe b33c 45fa 53ba e3a0 10bd
00000010: 2ec1 013d 63c0 683a 6db9 3ab8 dc12 8a3c
00000020: 74f3 c53c 97f4 193d 100d 573d 2fa8 143c
00000030: 5d4b f03c 88ed a1bc f05f 4b3d d748 42bc
00000040: 4144 3a3d d55e cd3c 8257 4d3d 79df ab3c
00000050: 5c81 69bb b38f 8cbc 41f4 11bc 363e 293c
00000060: 2436 9c3c 25f7 81bc 3870 773c 3d15 133d
00000070: 6f5a a1bc a64e 2ebc 6629 fdbc 229d d83c
00000080: 3fd5 ff3c f7b7 70bc 7af8 56bb b1a9 1c3d
00000090: c14c 143d 84fa 193d 4039 383d be3d 253d
000000a0: ee12 49bd 23ed cabc 88c9 a73c 72cc 493d
000000b0: dc63 21bd a745 99bc f59a 40bd 0157 303c
000000c0: 3d0c c9bc e772 f93b 6287 fa3c 1ad9 743c
000000d0: a982 67bc 308d 243d 113c 323d 2320 c23c
000000e0: 94b2 413d ef12 ca3c d79d c93c 77e6 eebc
000000f0: 6570 303d eb7d 88bb 3122 043d d4a7 8cbb
00000100: 2663 3c3c bfb2 053d 95b9 6a3c 0507 543c
00000110: 32f2 903a c3b0 b23c b572 07bd fc73 6a3c
00000120: 986e f7bc 158e b3bc 885f 9a3c 3733 fa3b
00000130: 586a 0a3d a0ac b83c 7758 173d ec1d 813c
00000140: ef72 0b3d d6f0 1f3d 59b2 afbc 1b18 2b3d
00000150: e7f7 493d 33ce dabc 1c85 403d 19fd 963b
00000160: 1061 9dbb 8e86 1d3d 443a acbc cb8b 67bc
00000170: 5deb 353d d6e6 a83c baf5 2bbd 9b75 0e3d
00000180: 4a13 0cbd 858e be3a 2264 593d 7555 24bd
00000190: 85e2 90bc a896 cf3c 4434 09bd 2188 d93c
000001a0: a143 4bbd 3a32 e6bb f12d 2fbd fd07 c63c
000001b0: ba98 75bb a34c 32bd fa7e 103d 66d8 913c
000001c0: d43e 1cbd 0683 d13c 998d 41bd 57b4 9cbb
000001d0: 408c 1a3d fa8c d63c ed74 35bd 3665 f03b
000001e0: 0188 23bd e8bf 1d3d 125b d43c 553a 1f3d
000001f0: d9c9 14bd 6a47 2c3d 475d df3b 0955 1ebd
00000200: 62eb 81bb b5ca 6cbc 8112 cbbb fb30 163d
00000210: 8d89 81bc 4d34 5f3d dcd5 e9bb fc5e 143c
00000220: b606 363d a926 8b3c 4bb3 d93c ef23 273c
00000230: e6a3 263d 1256 debc 9777 9e3c eec6 52bc
00000240: 45bd 48bc d56c 453d 97b9 003d 88c1 323d
00000250: a60d 4a3d 21ac 383d 47e0 22bd 14f1 d13c
00000260: 8162 aabc a129 42bd 7d06 233d 8ad7 643c
00000270: c45b 01bd 5fcd 0d3d e6b0 5c3c b18e 3d3d
00000280: 57b8 e6bc 5432 e73c 83ac 453c a43b 583c
00000290: 9a6e 9bbc 8a8b 7dbb c403 0b3a 1236 05bb
000002a0: ae2e dd3b 3859 4dbd f6a6 3c3d 04ba da3c
000002b0: 95e0 363b 14b1 b4bc b8e8 c03c d506 03bb
000002c0: f879 05bd 2e05 1f3d ecdf 09bd fcbe 473d
000002d0: 12f7 da3c 20db 2abd bfc6 e5bc b309 2a3c
000002e0: fc2e 1bbd 1275 acbc 5a75 ffbc 9725 4e3c
000002f0: bd1e b83c 8a81 9b39 5554 39bd 515b 28bd
00000300: 1108 30bd 555c 453a 7de0 eebb 762d 1dbd
00000310: b2e5 eabc d9e3 243d 6b43 053d aa1c b0bc
00000320: ad99 c7bc 5e5e b63c f3ca f6bc 916e afb9
00000330: cd98 513c 6c67 02bd 4fbc 3dbd 0c54 573c
00000340: 8458 83bb f914 2f3c 9316 c8bb cc10 5bbc
00000350: 9600 803c b9e9 b93c c391 2a3d c6ed 473d
00000360: b527 003d e220 363c d27e f2bc aaaa 19bd
00000370: 557c 39bd f1d1 dd3b 912f d33b c250 5dbc
00000380: 72f9 013b d9a9 2e3d 2e5b b7bc 67fc 95bc
00000390: 5e7e a73c 92f8 4d3d 1672 c9ba d882 b5bb
000003a0: daa8 6fbc 2e87 4d3d 862a cd3c b999 223d
000003b0: 0d37 04bb ba7b febb c3ff 38bc 747c 583b
000003c0: 8d5e 2cbd 8ab1 2f3d 5731 c43b fada 3b3c
000003d0: 942f 00bd d552 183d 90c5 a23c 8a0b e4bb
000003e0: 1691 debb 498e 853c ec17 313d 7a20 813c
000003f0: 2651 233d 4b95 47bd 4e5b eabc 95fa 263b

weight f4 [16]
1.0033038 1.001596 1.0029794 1.000828 1.0054713 0.9950524 0.99837303 0.99761724
0.99453646 1.0026788 0.99837524 1.0025083 0.9998489 0.99554205 0.9908799 1.0047534
00000000: 426c 803f 4c34 803f a161 803f 221b 803f
00000010: 49b3 803f c1bb 7e3f 6095 7f3f d863 7f3f
00000020: f199 7e3f c757 803f 8595 7f3f 3152 803f
00000030: 19f6 7f3f d8db 7e3f 4eaa 7d3f c29b 803f

bias f4 [16]
0.00079306745 0.0021480683 -0.0025765847 -0.0029234698 0.0037060056 -0.011559998 0.00037691067 -0.011347338
-0.0076240525 -0.0009186065 -0.0032971334 -0.012694661 -0.0040868265 -0.0051720855 -0.0063964375 -0.0055694184
00000000: dbe5 4f3a 9bc6 0c3b ebdb 28bb af97 3fbb
00000010: 75e0 723b 2566 3dbc 189c c539 2fea 39bc
00000020: 30d3 f9bb a4ce 70ba b814 58bb 44fd 4fbc
00000030: c9ea 85bb 997a a9bb 3599 d1bb ab7f b6bb

weight f4 [16, 16, 5, 5]
-0.0166556 0.021885378 -0.015965475 -0.046263438 -0.036623295 -0.024501054 0.03804291 -0.04121278
-0.026199361 -0.01273893 0.045865107 0.007894171 0.0398611 0.006953776 -0.013179102 -0.028051531
0.005811754 -0.027732871 0.028206918 0.009751241 -0.02090212 0.010727485 0.018667044 0.0029316556
0.015872521 -0.04410176 0.033463344 -0.011453632 -0.050346173 0.0045910724 -0.025182044 0.037454102
-0.040856637 0.016896985 -0.014388324 -0.005091658 0.0013253661 0.014633134 -0.04382118 -0.0036835375
-0.0032256816 0.012982357 -0.012527801 0.007730428 -0.016933877 0.032795485 0.05635806 -0.03775066
0.031402726 -0.030810187 0.020741051 0.044271667 0.006312094 -0.025687926 0.008722488 0.016469061
-0.002493325 -0.033493415 -0.026154563 -0.030108798 -0.018779438 0.05014981 0.03832713 0.005714776
0.047245126 -0.019426713 -0.025398435 0.018765675 -0.01125945 -0.015726289 0.019688694 0.010090071
-0.027698843 -0.038166665 0.024143513 0.006220159 0.038748153 0.026440967 0.003352799 0.015393384
0.009863922 0.0052980958 -0.015285319 -0.041429564 -0.028762663 -0.012353208 -0.014748389 0.043597948
0.04623709 0.024390547 0.05135217 0.019429239 0.04871938 0.050166048 0.013242319 0.022046437
-0.022182172 0.026150575 0.0008210836 -0.028202236 0.050804134 0.016072402 -0.019234775 -0.018824924
0.0035340174 0.049437124 0.03625746 0.027328385 -0.01906671 0.034031462 0.00051994156 0.004510835
0.04167902 -0.0129681965 -0.03885931 0.028789528 0.05445284 0.0028404188 0.0027787467 0.036875457
-0.02613426 -0.02431408 0.02450118 -0.012086399 0.04711218 -0.01575257 0.021270847 0.002220674
-0.043892715 0.047224678 0.012122133 -0.02468778 0.016820753 0.04210607 -0.016803745 0.025917115
-0.040372215 0.019652763 0.041614845 -0.02768389 -0.0396772 -0.0006278556 -0.043942146 -0.014857031
-0.043026716 -0.0101382295 0.01807977 0.035730153 0.010428051 0.0009288398 -0.008149454 0.0076620304
0.0012286818 -0.03235133 0.01795683 -0.011508398 0.031236483 -0.008630844 0.04021609 -0.041247077
-0.016855676 0.037210852 0.010158978 0.04188541 -0.030314408 -0.022308348 -0.023589654 -0.0404663
0.022141384 0.0027578203 0.0163868 0.026529338 0.02161896 -0.025020909 0.010264703 0.033243854
-0.05021975 -0.0066118888 0.0060401163 -0.0014054769 0.037557404 0.03755377 -0.023362972 -0.029676208
-0.03245394 -0.00072989747 0.002405241 0.046520587 0.016211981 -0.0035384286 -0.03850352 -0.008476892
0.029755464 -0.005559381 0.021514807 0.051208537 -0.02484271 0.0077469037 0.03305648 -0.021476017
0.01416297 -0.025564218 0.03617522 0.034296457 0.052776743 -0.009963977 0.05707559 0.007064722
-0.043324184 0.03638562 0.028784608 -0.03630151 -0.030816486 0.021317553 0.010000779 -0.016029894
0.030693375 -0.005676322 0.022139996 0.0096591795 0.02423564 -0.036688216 -0.008132034 -0.02386818
0.004902018 0.019352045 0.048743207 0.05193071 0.023680843 0.030001173 -0.015114429 0.016054664
0.034407545 -0.009564725 0.013546599 -0.026235206 -0.010057243 -0.008726643 -0.03147583 0.0021532024
-0.002457134 0.0025689083 -0.011478146 0.030264549 0.010723568 -0.006860846 0.015892345 0.046165872
0.035240438 0.028094709 -0.016930692 0.030109797 -0.01635614 0.009729411 0.0097109 -0.048183262
00000000: 5371 88bc f748 b33c 07ca 82bc bb7e 3dbd
00000010: 4f02 16bd 6fb6 c8bc e2d2 1b3d bbce 28bd
00000020: 0ba0 d6bc f2b6 50bc 0ddd 3b3d 8e56 013c
00000030: 6545 233d 80dc e33b 29ed 57bc 53cc e5bc
00000040: 8770 be3b 0c30 e3bc 3212 e73c abc3 1f3c
00000050: ec3a abbc 55c2 2f3c a1eb 983c 0521 403b
00000060: 1707 823c 0ca4 34bd dc10 093d 04a8 3bbc
00000070: ca37 4ebd b570 963b 934a cebc 7969 193d
00000080: 4a59 27bd 8c6b 8a3c 01bd 6bbc ecd7 a6bb
00000090: e8b7 ad3a d0bf 6f3c d67d 33bd 8167 71bb
000000a0: f565 53bb f4b3 543c 6841 4dbc 884f fd3b
000000b0: eab8 8abc 8f54 063d b6d7 663d 70a0 1abd
000000c0: 25a0 003d a565 fcbc 23e9 a93c 3556 353d
000000d0: afd5 ce3b 7c6f d2bc c4e8 0e3c 20ea 863c
000000e0: 0d67 23bb 6430 09bd 1842 d6bc baa6 f6bc
000000f0: 56d7 99bc e369 4d3d e9fc 1c3d 0443 bb3b
00000100: 1b84 413d c524 9fbc 6110 d0bc 79ba 993c
00000110: 8e79 38bc 6bd4 80bc 2f4a a13c d350 253c
00000120: afe8 e2bc a654 1cbd 9ec8 c53c 7ad2 cb3b
00000130: 62b6 1e3d ba9a d83c a2ba 5b3b 8834 7c3c
00000140: 4a9c 213c a69b ad3b 466f 7abc 0cb2 29bd
00000150: ad9f ebbc 1c65 4abc 3aa3 71bc c393 323d
00000160: 1a63 3d3d afce c73c a756 523d 112a 9f3c
00000170: f98d 473d ea7a 4d3d 50f6 583c bb9a b43c
00000180: 63b7 b5bc bb39 d63c fd3d 573a 6008 e7bc
00000190: ff17 503d 45aa 833c 3f92 9dbc ba36 9abc
000001a0: f99a 673b 957e 4a3d b482 143d c7df df3c
000001b0: ca31 9cbc 9364 0b3d b04c 083a a0cf 933b
000001c0: 9fb7 2a3d 8f78 54bc f12a 1fbd 04d8 eb3c
000001d0: f109 5f3d 5226 3a3b a21b 363b b80a 173d
000001e0: 8417 d6bc 522e c7bc b3b6 c83c 0806 46bc
000001f0: b4f8 403d 890b 81bc 3340 ae3c ba88 113b
00000200: d9c8 33bd aa6e 413d e99b 463c 073e cabc
00000210: adcb 893c 6a77 2c3d 02a8 89bc 2150 d43c
00000220: 565d 25bd d5fe a03c 5474 2a3d 53c9 e2bc
00000230: 8f84 22bd ad96 24ba aefc 33bd e86a 73bc
00000240: c83c 30bd d11a 26bc 071c 943c c859 123d
00000250: 6bda 2a3c 627d 733a 4a85 05bc c511 fb3b
00000260: b80b a13a d482 04bd 341a 933c b88d 3cbc
00000270: a7e3 ff3c 6268 0dbc a0b9 243d b2f2 28bd
00000280: ea14 8abc 686a 183d d871 263c 0990 2b3d
00000290: ec55 f8bc ffbf b6bc 173f c1bc febf 25bd
000002a0: d961 b53c 8cbc 343b 9c3d 863c 0e54 d93c
000002b0: 3f1a b13c a6f8 ccbc 492d 283c b52a 083d
000002c0: 39b3 4dbd 8ba8 d8bb 2bec c53b fb37 b8ba
000002d0: cbd5 193d fbd1 193d b463 bfbc 851b f3bc
000002e0: 6cee 04bd 9756 3fba 3fa1 1d3b 5f8c 3e3d
000002f0: fdce 843c fbe4 67bb deb5 1dbd a9e2 0abc
00000300: bbc1 f33c 782b b6bb d23f b03c 0bc0 513d
00000310: f082 cbbc bdd9 fd3b 3b66 073d 79ee afbc
00000320: cd0b 683c 0d6c d1bc 782c 143d 717a 0c3d
00000330: 6d2c 583d f33f 23bc 18c8 693d 2f7f e73b
00000340: b374 31bd 1609 153d b3cd eb3c e4b0 14bd
00000350: db72 fcbc 26a2 ae3c 4fda 233c 2051 83bc
00000360: ac70 fb3c 7100 babb f05e b53c 8941 1e3c
00000370: d289 c63c 6246 16bd 393c 05bc 3487 c3bc
00000380: 1ba1 a03b 2e88 9e3c f5a6 473d 4cb5 543d
00000390: 54fe c13c 05c5 f53c 83a2 77bc 1285 833c
000003a0: edee 0c3d 5db5 1cbc 8ef2 5d3c 37eb d6bc
000003b0: 22c7 24bc 32fa 0ebc cdec 00bd be1c 0d3b
000003c0: de07 21bb 215b 283b d50e 3cbc 5ced f73c
000003d0: e7b1 2f3c f3d0 e0bb aa30 823c 6d18 3d3d
000003e0: 4758 103d e026 e63c 3cb2 8abc d2a8 f63c
000003f0: 50fd 85bc 1c68 1f3c 771a 1f3c d05b 45bd

weight f4 [16]
0.99501795 0.99403137 0.99986786 0.99979997 1.0043147 0.98969644 1.0039029 0.9928513
1.0001298 0.9964339 0.99768066 1.0022516 1.0000558 0.9898891 1.0023862 1.0078982
00000000: 7fb9 7e3f d778 7e3f 57f7 7f3f e4f2 7f3f
00000010: 628d 803f bf5c 7d3f e47f 803f 812b 7e3f
00000020: 4104 803f 4b16 7f3f 0068 7f3f c849 803f
00000030: d401 803f 5f69 7d3f 314e 803f cf02 813f

bias f4 [16]
-0.003080085 -0.0048534693 -0.0046342886 0.00068160536 0.006293641 -0.012514356 0.009049831 -0.0056556077
-0.0010320575 -0.004745956 -0.002269573 -5.2308245e-05 1.9591202e-05 -0.016869083 0.00055218546 -0.0010079506
00000000: 40db 49bb da09 9fbb 3bdb 97bb c3ad 323a
00000010: e33a ce3b 0309 4dbc be45 143c ad52 b9bb
00000020: 1a46 87ba f783 9bbb 1ebd 14bb 8d65 5bb8
00000030: c957 a437 0831 8abc 8ac0 103a 361d 84ba

weight f4 [32, 16, 5, 5]
-0.10649145 -0.08879747 -0.10049466 0.028852616 -0.024568861 0.017170876 -0.01953028 0.019772276
-0.089810275 -0.108795546 -0.02663457 0.026426429 -0.024598481 0.0406234 0.11260141 0.03253046
-0.0758866 -0.11018962 0.057914022 -0.07178324 0.048732363 -0.020135256 -0.030095877 -0.0038849313
-0.0065343394 0.05763312 0.092175245 -0.12689272 0.086008444 -0.09281617 -0.001935805 -0.04799114
0.062323183 0.041613262 0.07855033 -0.032378003 -0.06072157 -0.071288005 -0.06538626 -0.02988963
-0.045377765 0.07707038 0.0877814 0.03978278 -0.021036945 -0.048070397 -0.00291019 0.11128793
-0.00022716438 -0.038531333 -0.04287023 -0.047284413 -0.05181213 0.009705951 -0.116702974 -0.015598349
0.011741754 -0.0060521923 -0.10386727 -0.03469593 0.043041974 0.04531818 0.051450647 0.054453064
0.071713865 -0.013294432 0.08422894 -0.028474886 -0.0095882155 0.021266302 0.011095339 -0.044686798
-0.056459956 0.10582818 0.12200967 -0.092051364 0.11906707 0.0037409246 0.11365683 0.034565154
-0.0035606793 -0.13618599 0.032963943 -0.10493331 0.0068323053 0.012052083 0.08535051 -0.0035535432
0.03974997 0.036456726 -0.036617693 0.04041233 -0.002693758 -0.061435416 -0.011608645 -0.026534026
-0.012707158 0.12574942 -0.10857924 -0.009456197 -0.01719456 -0.026196834 -0.021619314 0.011678075
0.08198135 -0.105238065 -0.015993444 0.016481975 0.06167108 -0.07589798 -0.12195442 -0.072486244
0.03079532 0.10931555 0.012042188 -0.057874635 -0.09587968 -0.13522653 0.13790365 0.043594487
-0.03132137 -0.06107445 0.00055638456 -0.051745705 0.07260399 0.06226737 -0.034904506 -0.008694494
-0.06223163 0.07140225 0.109468415 0.059108634 0.1347557 -0.18021137 -0.08445819 -0.043508966
-0.11196229 -0.035728704 0.08969965 -0.025667302 -0.023526194 0.007006277 0.0600554 -0.049817104
0.13566025 0.024115209 0.0019247552 0.09380893 0.078410454 0.0074272533 -0.04899673 -0.11921188
0.07583763 -0.003434176 0.0545614 -0.07014779 -0.020547159 0.0057593603 0.13168465 0.027122192
-0.039682195 -0.10546727 -0.14602114 -0.07642582 0.025627637 -0.03111253 0.011885324 0.098845616
-0.11127138 0.05065675 -0.02708565 -0.09846231 0.045534395 -0.044202294 0.044694092 0.074566945
-0.038618397 0.12938716 -0.19789265 0.13607201 -0.1939309 -0.020811329 0.0317887 -0.05791666
-0.01717693 0.034009613 -0.0048427503 0.10796164 -0.019590145 -0.05099088 -0.05365098 -0.14508605
-0.06781964 0.0753013 -0.065006 0.018725775 -0.009797871 0.0071438355 0.06613785 -0.0017973332
0.13882893 -0.035537116 0.080997914 -0.037238274 -0.048844617 0.05081508 0.024796518 -0.0038156945
0.1109958 -0.13890287 -0.0050366144 -0.019447552 -0.024666395 -0.0015660806 0.006634083 -0.021296643
0.053358063 -0.02009587 0.0206823 -0.02444039 0.043164264 0.123882145 -0.07352167 -0.08200406
-0.057045616 0.051443454 0.0960108 0.036668744 -0.012435218 -0.14632715 -0.02398803 0.02075075
-0.066862024 -0.009880151 0.116862245 0.12497969 -0.08984001 -0.009526293 0.10430406 0.0058528273
0.07597558 -0.040890295 -0.07276719 0.020007275 0.032530557 -0.076202616 0.16174254 0.07794479
0.042288527 0.11829788 0.07414731 -0.07617332 0.15742026 -0.0038695207 0.004291386 0.013904703
00000000: 3018 dabd 73db b5bd 25d0 cdbd 525c ec3c
00000010: a344 c9bc f0a9 8c3c f7fd 9fbc 78f9 a13c
00000020: 73ee b7bd 33d0 debd be30 dabc 3d7c d83c
00000030: c182 c9bc b964 263d 919b e63d a93e 053d
00000040: 6f6a 9bbd 18ab e1bd 4137 6d3d 1703 93bd
00000050: 969b 473d b1f2 a4bc a18b f6bc 559a 7ebb
00000060: 031e d6bb b510 6c3d 60c6 bc3d 2af0 01be
00000070: 3225 b03d 6716 bebd d6ba fdba 5c92 44bd
00000080: 9846 7f3d ab72 2a3d ffde a03d cc9e 04bd
00000090: 2eb7 78bd 72ff 91bd 3be9 85bd 19db f4bc
000000a0: 09de 39bd 13d7 9d3d bcc6 b33d 45f3 223d
000000b0: ac55 acbc 77e5 44bd e3b8 3ebb edea e33d
000000c0: f932 6eb9 08d3 1dbd b298 2fbd 4dad 41bd
000000d0: f538 54bd b605 1f3c f801 efbd 3890 7fbc
000000e0: 7c60 403c 7851 c6bb 5db8 d4bd 521d 0ebd
000000f0: c84c 303d 8e9f 393d eabd 523d 2d0a 5f3d
00000100: b8de 923d e4d0 59bc 3980 ac3d 2a44 e9bc
00000110: e417 1dbc ab36 ae3c 3ac9 353c 8109 37bd
00000120: 8e42 67bd 72bc d83d 35e0 f93d 6d85 bcbd
00000130: 70d9 f33d 4d2a 753b e9c4 e83d 3194 0d3d
00000140: 495a 69bb 5774 0bbe 3305 073d 46e7 d6bd
00000150: 88e1 df3b 1a76 453c 40cc ae3d 90e2 68bb
00000160: ddd0 223d a653 153d 6ffc 15bd 6687 253d
00000170: c389 30bb b4a3 7bbd 3032 3ebc e35d d9bc
00000180: af31 50bc 75c4 003e cb5e debd 2aee 1abc
00000190: 9bdb 8cbc be9a d6bc fd1a b1bc 6655 3f3c
000001a0: d7e5 a73d 0e87 d7bd af04 83bc 3505 873c
000001b0: d09a 7c3d 6670 9bbd 3dc3 f9bd ab73 94bd
000001c0: 7846 fc3c d5e0 df3d 994c 453c f40d 6dbd
000001d0: 915c c4bd d378 0abe 9d36 0d3e 2290 323d
000001e0: d64a 00bd 3429 7abd 56da 113a 4ef3 53bd
000001f0: 67b1 943d 120c 7f3d 07f8 0ebd 5a73 0ebc
00000200: 98e6 7ebd 583b 923d fa30 e03d e51b 723d
00000210: 66fd 093e 5489 38be 6af8 acbd 7536 32bd
00000220: 7c4c e5bd 4358 12bd 73b4 b73d 3c44 d2bc
00000230: 01ba c0bc e994 e53b a7fc 753d 050d 4cbd
00000240: 85ea 0a3e 428d c53c 1148 fc3a e51e c03d
00000250: a995 a03d 5160 f33b ccb0 48bd 5c25 f4bd
00000260: c250 9b3d ea0f 61bb c67b 5f3d a5a9 8fbd
00000270: 8452 a8bc 04b9 bc3b 57d8 063e 5c2f de3c
00000280: cc89 22bd 39ff d7bd 9186 15be 2485 9cbd
00000290: 0df1 d13c b4df febc a9ba 423c 926f ca3d
000002a0: 40e2 e3bd 747d 4f3d bae2 ddbc 9ca6 c9bd
000002b0: 4682 3a3d 770d 35bd 2711 373d 8eb6 983d
000002c0: 532e 1ebd 117e 043e 5fa4 4abe 7656 0b3e
000002d0: d295 46be 857c aabc de34 023d 053a 6dbd
000002e0: a2b6 8cbc aa4d 0b3d efaf 9ebb fe1a dd3d
000002f0: 837b a0bc d0db 50bd 21c1 5bbd 7091 14be
00000300: 06e5 8abd 9137 9a3d de21 85bd cc66 993c
00000310: 4087 20bc d616 ea3b 4873 873d 7f94 ebba
00000320: 2c29 0e3e 5e8f 11bd 3ce2 a53d 2987 18bd
00000330: 4b11 48bd 7923 503d 1122 cb3c bb10 7abb
00000340: c451 e33d 8e3c 0ebe 2f0a a5bb 7950 9fbc
00000350: 2e11 cabc f244 cdba b962 d93b 4c76 aebc
00000360: fc8d 5a3d 18a0 a4bc ed6d a93c 3637 c8bc
00000370: 03cd 303d ecb5 fd3d 8892 96bd bff1 a7bd
00000380: aaa8 69bd 5fb6 523d 4fa1 c43d f731 163d
00000390: 16bd 4bbc c9d6 15be 8c82 c4bc 7afd a93c
000003a0: f5ee 88bd 5be0 21bc 7955 ef3d 5af5 ff3d
000003b0: 0afe b7bd 2b14 1cbc 5e9d d53d 13c9 bf3b
000003c0: 1699 9b3d 957c 27bd f706 95bd 4ce6 a33c
000003d0: c33e 053d 1e10 9cbd d69f 253e 85a1 9f3d
000003e0: bc36 2d3d 2946 f23d 8bda 973d c200 9cbd
000003f0: c732 213e c997 7dbb c19e 8c3b 8dd0 633c

kernel f4 [32, 1, 5, 5]
0.0039 0.0156 0.0234 0.0156 0.0039 0.0156 0.0625 0.0938
0.0625 0.0156 0.0234 0.0938 0.1406 0.0938 0.0234 0.0156
0.0625 0.0938 0.0625 0.0156 0.0039 0.0156 0.0234 0.0156
0.0039 0.0039 0.0156 0.0234 0.0156 0.0039 0.0156 0.0625
0.0938 0.0625 0.0156 0.0234 0.0938 0.1406 0.0938 0.0234
0.0156 0.0625 0.0938 0.0625 0.0156 0.0039 0.0156 0.0234
0.0156 0.0039 0.0039 0.0156 0.0234 0.0156 0.0039 0.0156
0.0625 0.0938 0.0625 0.0156 0.0234 0.0938 0.1406 0.0938
0.0234 0.0156 0.0625 0.0938 0.0625 0.0156 0.0039 0.0156
0.0234 0.0156 0.0039 0.0039 0.0156 0.0234 0.0156 0.0039
0.0156 0.0625 0.0938 0.0625 0.0156 0.0234 0.0938 0.1406
0.0938 0.0234 0.0156 0.0625 0.0938 0.0625 0.0156 0.0039
0.0156 0.0234 0.0156 0.0039 0.0039 0.0156 0.0234 0.0156
0.0039 0.0156 0.0625 0.0938 0.0625 0.0156 0.0234 0.0938
0.1406 0.0938 0.0234 0.0156 0.0625 0.0938 0.0625 0.0156
0.0039 0.0156 0.0234 0.0156 0.0039 0.0039 0.0156 0.0234
0.0156 0.0039 0.0156 0.0625 0.0938 0.0625 0.0156 0.0234
0.0938 0.1406 0.0938 0.0234 0.0156 0.0625 0.0938 0.0625
0.0156 0.0039 0.0156 0.0234 0.0156 0.0039 0.0039 0.0156
0.0234 0.0156 0.0039 0.0156 0.0625 0.0938 0.0625 0.0156
0.0234 0.0938 0.1406 0.0938 0.0234 0.0156 0.0625 0.0938
0.0625 0.0156 0.0039 0.0156 0.0234 0.0156 0.0039 0.0039
0.0156 0.0234 0.0156 0.0039 0.0156 0.0625 0.0938 0.0625
0.0156 0.0234 0.0938 0.1406 0.0938 0.0234 0.0156 0.0625
0.0938 0.0625 0.0156 0.0039 0.0156 0.0234 0.0156 0.0039
0.0039 0.0156 0.0234 0.0156 0.0039 0.0156 0.0625 0.0938
0.0625 0.0156 0.0234 0.0938 0.1406 0.0938 0.0234 0.0156
0.0625 0.0938 0.0625 0.0156 0.0039 0.0156 0.0234 0.0156
0.0039 0.0039 0.0156 0.0234 0.0156 0.0039 0.0156 0.0625
0.0938 0.0625 0.0156 0.0234 0.0938 0.1406 0.0938 0.0234
0.0156 0.0625 0.0938 0.0625 0.0156 0.0039 0.0156 0.0234
0.0156 0.0039 0.0039 0.0156 0.0234 0.0156 0.0039 0.0156
00000000: 2497 7f3b 2497 7f3c 5bb1 bf3c 2497 7f3c
00000010: 2497 7f3b 2497 7f3c 0000 803d 371a c03d
00000020: 0000 803d 2497 7f3c 5bb1 bf3c 371a c03d
00000030: 72f9 0f3e 371a c03d 5bb1 bf3c 2497 7f3c
00000040: 0000 803d 371a c03d 0000 803d 2497 7f3c
00000050: 2497 7f3b 2497 7f3c 5bb1 bf3c 2497 7f3c
00000060: 2497 7f3b 2497 7f3b 2497 7f3c 5bb1 bf3c
00000070: 2497 7f3c 2497 7f3b 2497 7f3c 0000 803d
00000080: 371a c03d 0000 803d 2497 7f3c 5bb1 bf3c
00000090: 371a c03d 72f9 0f3e 371a c03d 5bb1 bf3c
000000a0: 2497 7f3c 0000 803d 371a c03d 0000 803d
000000b0: 2497 7f3c 2497 7f3b 2497 7f3c 5bb1 bf3c
000000c0: 2497 7f3c 2497 7f3b 2497 7f3b 2497 7f3c
000000d0: 5bb1 bf3c 2497 7f3c 2497 7f3b 2497 7f3c
000000e0: 0000 803d 371a c03d 0000 803d 2497 7f3c
000000f0: 5bb1 bf3c 371a c03d 72f9 0f3e 371a c03d
00000100: 5bb1 bf3c 2497 7f3c 0000 803d 371a c03d
00000110: 0000 803d 2497 7f3c 2497 7f3b 2497 7f3c
00000120: 5bb1 bf3c 2497 7f3c 2497 7f3b 2497 7f3b
00000130: 2497 7f3c 5bb1 bf3c 2497 7f3c 2497 7f3b
00000140: 2497 7f3c 0000 803d 371a c03d 0000 803d
00000150: 2497 7f3c 5bb1 bf3c 371a c03d 72f9 0f3e
00000160: 371a c03d 5bb1 bf3c 2497 7f3c 0000 803d
00000170: 371a c03d 0000 803d 2497 7f3c 2497 7f3b
00000180: 2497 7f3c 5bb1 bf3c 2497 7f3c 2497 7f3b
00000190: 2497 7f3b 2497 7f3c 5bb1 bf3c 2497 7f3c
000001a0: 2497 7f3b 2497 7f3c 0000 803d 371a c03d
000001b0: 0000 803d 2497 7f3c 5bb1 bf3c 371a c03d
000001c0: 72f9 0f3e 371a c03d 5bb1 bf3c 2497 7f3c
000001d0: 0000 803d 371a c03d 0000 803d 2497 7f3c
000001e0: 2497 7f3b 2497 7f3c 5bb1 bf3c 2497 7f3c
000001f0: 2497 7f3b 2497 7f3b 2497 7f3c 5bb1 bf3c
00000200: 2497 7f3c 2497 7f3b 2497 7f3c 0000 803d
00000210: 371a c03d 0000 803d 2497 7f3c 5bb1 bf3c
00000220: 371a c03d 72f9 0f3e 371a c03d 5bb1 bf3c
00000230: 2497 7f3c 0000 803d 371a c03d 0000 803d
00000240: 2497 7f3c 2497 7f3b 2497 7f3c 5bb1 bf3c
00000250: 2497 7f3c 2497 7f3b 2497 7f3b 2497 7f3c
00000260: 5bb1 bf3c 2497 7f3c 2497 7f3b 2497 7f3c
00000270: 0000 803d 371a c03d 0000 803d 2497 7f3c
00000280: 5bb1 bf3c 371a c03d 72f9 0f3e 371a c03d
00000290: 5bb1 bf3c 2497 7f3c 0000 803d 371a c03d
000002a0: 0000 803d 2497 7f3c 2497 7f3b 2497 7f3c
000002b0: 5bb1 bf3c 2497 7f3c 2497 7f3b 2497 7f3b
000002c0: 2497 7f3c 5bb1 bf3c 2497 7f3c 2497 7f3b
000002d0: 2497 7f3c 0000 803d 371a c03d 0000 803d
000002e0: 2497 7f3c 5bb1 bf3c 371a c03d 72f9 0f3e
000002f0: 371a c03d 5bb1 bf3c 2497 7f3c 0000 803d
00000300: 371a c03d 0000 803d 2497 7f3c 2497 7f3b
00000310: 2497 7f3c 5bb1 bf3c 2497 7f3c 2497 7f3b
00000320: 2497 7f3b 2497 7f3c 5bb1 bf3c 2497 7f3c
00000330: 2497 7f3b 2497 7f3c 0000 803d 371a c03d
00000340: 0000 803d 2497 7f3c 5bb1 bf3c 371a c03d
00000350: 72f9 0f3e 371a c03d 5bb1 bf3c 2497 7f3c
00000360: 0000 803d 371a c03d 0000 803d 2497 7f3c
00000370: 2497 7f3b 2497 7f3c 5bb1 bf3c 2497 7f3c
00000380: 2497 7f3b 2497 7f3b 2497 7f3c 5bb1 bf3c
00000390: 2497 7f3c 2497 7f3b 2497 7f3c 0000 803d
000003a0: 371a c03d 0000 803d 2497 7f3c 5bb1 bf3c
000003b0: 371a c03d 72f9 0f3e 371a c03d 5bb1 bf3c
000003c0: 2497 7f3c 0000 803d 371a c03d 0000 803d
000003d0: 2497 7f3c 2497 7f3b 2497 7f3c 5bb1 bf3c
000003e0: 2497 7f3c 2497 7f3b 2497 7f3b 2497 7f3c
000003f0: 5bb1 bf3c 2497 7f3c 2497 7f3b 2497 7f3c

weight f4 [32, 32, 3, 3]
0.052267525 0.044892438 0.0051976633 -0.008722133 0.03017244 0.036659855 0.046722345 -0.04211638
0.00452347 -0.006774678 0.0437905 -0.052050676 -0.012684833 -0.0503874 0.001260389 0.03363058
-0.008180881 -0.013724443 -0.0112755075 0.049435087 0.015156496 -0.00380524 0.030047594 0.04265549
0.044047855 0.0009350761 0.0063642967 0.042655792 0.007402832 0.05563625 -0.048252292 0.02760229
-0.029152498 0.025381759 -0.0031791118 -0.027540892 -0.057631254 -0.02118941 -0.011145666 -0.005197125
-0.012691625 0.04744735 0.046704527 0.030189896 0.0032761914 0.031395096 0.04170992 0.034336697
0.0068749166 -0.061519086 -0.060912445 0.033745334 -0.042257693 0.050082535 -0.01714551 0.013006616
-0.0025999316 0.051558413 0.016082978 -0.020043684 0.013476667 -0.042462908 -0.007658008 0.043206397
0.04188521 0.0347096 -0.043672945 -0.051245417 -0.019551445 -0.049633656 -0.018693661 0.00945686
-0.0197697 -0.018948184 -0.017319428 0.049357098 -0.033168107 0.012216175 0.06195351 -0.02119125
-0.018752173 -0.014615321 0.03571427 -0.020501325 -0.0063824235 0.025830027 0.014380824 0.022759574
0.014438727 0.026267173 -0.026556773 0.043366604 0.013242734 0.01548884 -0.05982091 -0.047149867
-0.019653577 -0.032351375 0.046905227 -0.037255708 -0.051765524 0.053711 0.03055134 -0.034110274
0.015564216 -0.01971248 -0.007019466 0.032599337 -0.04886561 -0.063554816 -0.0063542062 -0.04570484
0.008711403 -0.065611586 0.0045139096 0.031093264 0.034065586 0.0403705 0.01077883 0.051015593
-0.014894226 0.010569484 0.010895876 0.047710024 0.048243705 -0.004256951 -0.05770211 0.05436337
-0.015432644 -0.050814662 0.020590004 -0.029175889 0.0027940986 0.0408272 -0.01915061 0.03613865
0.060168877 0.04138168 0.037656147 0.0239021 -0.020944884 -0.033073667 -0.06475165 0.018189158
0.012271046 -0.048655692 -0.016198497 -0.055172846 -0.038739767 -0.031092046 -0.03902807 0.043601625
0.0049144006 -0.010026771 -0.018242612 0.015059785 0.027792748 -0.03677577 0.0048083174 0.048166327
-0.052303594 0.0052374187 -0.010611105 -0.036539562 -0.048651546 -0.037394445 0.015892308 -0.01630105
0.04936031 -0.032534767 0.015525309 0.01982999 0.066840865 -0.043352142 -0.052745976 0.0015920639
-0.0026866049 0.047902547 -0.03563647 0.0091762515 0.05342509 0.004212793 0.060587686 0.04163093
-0.030505093 -0.021798024 0.00014195788 0.046204038 0.021082683 -0.007825598 0.029933471 -0.034865465
0.033839364 -0.027252538 -0.040973943 0.027139068 -0.013714577 -0.00072539033 -0.0546855 -0.0013001108
-0.008220271 0.028933333 0.02881609 -0.05370453 0.03876865 -0.022944605 -0.038615048 -0.008913139
-0.031179685 -0.053372953 0.043669414 -0.029076584 -0.009085153 -0.023718143 -0.0023292003 0.04443963
0.037095126 0.015485213 0.014938864 -0.03465618 -0.057628896 -0.021241872 0.022871535 0.016986841
-0.054532528 -0.020306854 0.00840038 0.022247119 -0.031495348 0.035281118 -0.023314659 0.028837534
0.0043030917 0.034738842 0.045404013 0.06220037 0.0067358576 -0.016493319 0.053222395 0.001688198
0.012030649 0.03709474 0.004661192 -0.03390423 -0.03131047 -0.055704247 0.03584098 -0.008235116
-0.052932024 -0.021022616 0.054898556 -0.021093586 -0.011067904 0.021781394 0.0037955549 0.02124539
00000000: 7916 563d 22e1 373d 2951 aa3b 47e7 0ebc
00000010: 312c f73c a528 163d ee5f 3f3d 3a82 2cbd
00000020: 9e39 943b 1efe ddbb ab5d 333d 1733 55bd
00000030: 0cd4 4fbc 0563 4ebd a333 a53a 38c0 093d
00000040: 1a09 06bc 7cdc 60bc e8bc 38bc 727c 4a3d
00000050: f452 783c 5561 79bb 5f26 f63c 86b7 2e3d
00000060: 866b 343d e51f 753a 978b d03b d7b7 2e3d
00000070: 7593 f23b d6e2 633d 32a4 45bd 331e e23c
00000080: 38d1 eebc 68ed cf3c a558 50bb 709d e1bc
00000090: c00e 6cbd 6a95 adbc 509c 36bc a54c aabb
000000a0: 89f0 4fbc 2758 423d 3f4d 3f3d cd50 f73c
000000b0: 5fb5 563b 2598 003d 05d8 2a3d a3a4 0c3d
000000c0: fb46 e13b 70fb 7bbd 547f 79bd 8c38 0a3d
000000d0: 6716 2dbd 5823 4d3d be74 8cbc b419 553c
000000e0: 9d63 2abb ea2e 533d 73c0 833c a732 a4bc
000000f0: 3dcd 5c3c 96ed 2dbd 07f0 fabb 31f9 303d
00000100: d38f 2b3d a72b 0e3d 67e2 32bd b7e6 51bd
00000110: 5a2a a0bc a94c 4bbd 7323 99bc f2f0 1a3c
00000120: 11f4 a1bc 3939 9bbc 79e1 8dbc ab2a 4a3d
00000130: 48db 07bd 5a26 483c f7c2 7d3d 4699 adbc
00000140: 289e 99bc 1975 6fbc 2049 123d 65f2 a7bc
00000150: a623 d1bb 7e99 d33c 8c9d 6b3c 4972 ba3c
00000160: 6990 6c3c 412e d73c 978d d9bc 2ea1 313d
00000170: 0df8 583c e7c4 7d3c c506 75bd 3820 41bd
00000180: 8a00 a1bc e082 04bd b21f 403d 7199 18bd
00000190: 1608 54bd 1100 5c3d ce46 fa3c 37b7 0bbd
000001a0: 0e01 7f3c 117c a1bc 8c03 e6bb e286 053d
000001b0: 4e27 48bd 0729 82bd f236 d0bb 0035 3bbd
000001c0: 46ba 0e3c 5e5f 86bd 6be9 933b 4db7 fe3c
000001d0: 5b88 0b3d 8a5b 253d b199 303c baf5 503d
000001e0: e906 74bc a12b 2d3c 9e84 323c 966b 433d
000001f0: 319b 453d e57d 8bbb 0c59 6cbd 20ac 5e3d
00000200: 33d9 7cbc 0923 50bd 5eac a83c 4602 efbc
00000210: 321d 373b 6c3a 273d bde1 9cbc 1f06 143d
00000220: a473 763d d67f 293d 553d 1a3d 56ce c33c
00000230: 9b94 abbc 4178 07bd 839c 84bd 6e01 953c
00000240: 7f0c 493c 314b 47bd b6b2 84bc ecfc 61bd
00000250: 97ad 1ebd bfb4 febc e6db 1fbd 9e97 323d
00000260: fb08 a13b 5347 24bc 8871 95bc 51bd 763c
00000270: 9ead e33c 31a2 16bd 178f 9d3b 0e4a 453d
00000280: 4b3c 56bd a79e ab3b 33da 2dbc 82aa 15bd
00000290: d846 47bd eb2a 19bd 9630 823c c889 85bc
000002a0: 092e 4a3d 2d43 05bd de5d 7e3c 8172 a23c
000002b0: dde3 883d 0492 31bd 2a0c 58bd cdac d03a
000002c0: c011 30bb 7635 443d 8cf7 11bd fd57 163c
000002d0: 44d4 5a3d 780b 8a3b cb2a 783d 3285 2a3d
000002e0: d1e5 f9bc c591 b2bc 87da 1439 7240 3d3d
000002f0: 97b5 ac3c f036 00bc 0a37 f53c 17cf 0ebd
00000300: 259b 0a3d b740 dfbc 4bd4 27bd c052 de3c
00000310: 1bb3 60bc 1f28 3eba e7fd 5fbd 7b68 aaba
00000320: 51ae 06bc 9905 ed3c b90f ec3c 48f9 5bbd
00000330: e0cb 1e3d 53f6 bbbc d02a 1ebd 6a08 12bc
00000340: 8a6c ffbc 999d 5abd b3de 323d 0432 eebc
00000350: e5d9 14bc 8d4c c2bc 7fa5 18bb 5406 363d
00000360: 0ff1 173d b1b5 7d3c 23c2 743c a3f3 0dbd
00000370: 470c 6cbd 6f03 aebc 165d bb3c fd27 8b3c
00000380: 805d 5fbd 8f5a a6bc bfa1 093c 973f b63c
00000390: 4401 01bd ef82 103d 62fe bebc b13c ec3c
000003a0: f300 8d3b 514a 0e3d 8ff9 393d d1c5 7e3d
000003b0: 78b8 dc3b ff1c 87bc baff 593d 8646 dd3a
000003c0: 331c 453c a7f0 173d eabc 983b 29df 0abd
000003d0: 683f 00bd 232a 64bd fecd 123d 94ec 06bc
000003e0: 40cf 58bd 9f37 acbc 4fdd 603d 75cc acbc
000003f0: 2756 35bc e56e b23c d8be 783b d00a ae3c

weight f4 [32]
1.0026155 0.99828357 0.99664766 0.99596685 0.99564147 1.0009528 0.995123 0.99256825
1.0104759 1.0062506 1.004861 1.0023835 0.9930186 0.99950093 1.0060438 0.99605304
0.99844587 1.0051895 1.0002836 1.0004954 0.995428 1.0030632 0.9996851 0.9942886
1.0019561 0.9998003 1.0052469 0.99604917 1.006953 0.9982422 1.0019257 1.00135
00000000: b455 803f 838f 7f3f 4d24 7f3f aff7 7e3f
00000010: 5ce2 7e3f 391f 803f 62c0 7e3f f418 7e3f
00000020: 4657 813f d2cc 803f 499f 803f 1a4e 803f
00000030: 7836 7e3f 4bdf 7f3f 0bc6 803f 55fd 7e3f
00000040: 269a 7f3f 0daa 803f 4b09 803f 3c10 803f
00000050: 5fd4 7e3f 6064 803f 5deb 7f3f b389 7e3f
00000060: 1940 803f eaf2 7f3f eeab 803f 14fd 7e3f
00000070: d6e3 803f cd8c 7f3f 1a3f 803f 3d2c 803f

bias f4 [32]
-0.0003484891 -0.0047915624 -0.004785515 -0.0007056256 -0.00036070208 -0.0031467522 -0.002781566 -0.002043683
0.0076991445 0.003058171 0.0024369222 -0.00057312514 -0.0013682494 -0.0025019846 0.0051035658 -0.0011346152
-0.004774725 0.0040406804 -0.005422908 -0.0047240155 -0.0046043615 0.002671862 -0.005064005 -0.007060042
0.00156294 -0.0009738537 0.0023914885 0.0039248103 0.007888504 7.317807e-05 -0.00012382332 0.00045236488
00000000: 6ab5 b6b9 8a02 9dbb cfcf 9cbb bcf9 38ba
00000010: 9d1c bdb9 be39 4ebb ef4a 36bb 50ef 05bb
00000020: 1b49 fc3b 986b 483b c5b4 1f3b c73d 16ba
00000030: d556 b3ba 56f8 23bb d03b a73b 5eb7 94ba
00000040: 4c75 9cbb af67 843b a6b2 b1bb eacb 9abb
00000050: 2fe0 96bb 681a 2f3b f4ef a5bb ed57 e7bb
00000060: 90db cc3a 374a 7fba 85ba 1c3b b29b 803b
00000070: c93e 013c 2d77 9938 92d6 01b9 632b ed39
